apps/ai/skpt/agent_CNN3_1_qnet.pt (torch, 212595 bytes, 12 tensors)

board_tower.0.weight f4 [16, 2, 3, 3]
0.1577308 0.0016267259 0.23256302 -0.16984 0.16081439 -0.09537892 -0.0012368095 -0.16481622
-0.03935018 -0.14608373 -0.03789765 -0.18486737 0.09676921 0.01924983 0.047081277 0.11539963
-0.0977812 -0.078825556 -0.09534549 -0.010740244 -0.09044268 0.10221363 0.1668934 0.12910047
0.2162128 0.071762875 -0.15577696 -0.20342283 0.025146425 0.1711283 -0.12145309 -0.23437898
0.21609968 0.09557199 0.12301625 0.04575044 -0.16705392 -0.022127366 -0.077891625 -0.11876967
0.10021454 -0.025256805 -0.039911617 -0.084403574 0.110183775 -0.11690115 -0.15980579 -0.10696213
-0.19677989 0.082753144 0.13633937 -0.1661783 0.09969361 -0.09915308 -0.003251324 -0.09277589
0.15260205 0.06450444 -0.17882772 -0.1594923 -0.1548629 0.21971227 0.11735646 0.12203374
-0.21532267 0.0361711 0.20428436 0.03089385 0.15642679 -0.1764266 0.04415204 0.15996547
0.06608124 0.15249997 0.09027146 -0.046285935 -0.14342274 0.03652513 0.10495136 0.23428364
-0.13422373 -0.10929836 0.13937712 -0.024834232 -0.2321273 -0.13651952 -0.1830307 -0.16618562
0.06533554 0.053140473 -0.0186499 0.18726683 0.119346164 -0.1528127 0.1902199 -0.1244956
0.03622678 0.0784496 0.050630093 0.1939422 -0.1581045 0.21778412 0.07407638 0.07118743
0.09806979 0.090536624 -0.120830484 -0.12053248 -0.0017761256 0.24126144 0.18599084 0.1300935
-0.107650876 -0.031324245 0.17121705 -0.027521007 0.020342445 0.059595257 0.00096403144 -0.18309718
-0.034312475 0.16383769 0.12884879 -0.07095476 -0.07134361 0.04506197 -0.21983787 -0.03457525
0.10612073 -0.018749414 0.21423297 0.10261571 0.06431088 -0.0067372834 0.1442473 0.12259115
0.043569252 -0.16997975 0.2189148 0.19582957 0.0070339497 -0.1457175 -0.14231357 0.047134634
-0.05932914 -0.23320802 0.11086867 0.10746697 -0.21723284 0.23490651 0.20271362 0.1473925
0.09883327 0.063152425 0.012658088 -0.11203562 -0.07138321 0.2298324 -0.20781274 -0.023964757
0.088994786 -0.09689061 0.1682443 -0.12113462 -0.052442327 0.037847534 -0.13138343 -0.038147207
-0.0811133 0.004504083 0.19582483 -0.12259272 -0.07601383 -0.029138176 0.060739826 -0.19823031
-0.19961715 -0.20017217 -0.06786137 0.034044407 -0.20059006 0.054229353 0.12779333 -0.15388583
-0.2214965 -0.039798502 0.15692051 0.042169135 -0.21192601 0.22484551 -0.16514504 -0.21608908
0.07308127 -0.05406221 0.09643911 -0.1579799 -0.015746167 -0.038788985 0.028397104 0.10434355
-0.020070814 -0.11488163 -0.18913808 0.22300538 0.06381111 0.052817326 -0.088051386 -0.16636644
0.14308238 0.050997593 -0.18454847 -0.20393711 -0.061824154 -0.13807596 0.21378048 -0.016861092
-0.029530486 0.015263958 -0.16651149 -0.037722494 -0.0019957866 -0.11702955 -0.11086438 0.23206958
-0.012961316 0.08858641 0.13544442 -0.21657188 -0.034633182 -0.17836991 0.0939454 -0.046969328
0.073232956 -0.22313769 -0.22068243 0.0937895 0.10777702 -0.15682116 -0.045782402 0.0377725
-0.12221912 -0.09173489 -0.14368992 0.20152669 0.22522141 -0.051797133 0.21949303 0.23346362
-0.13779466 0.12451848 0.1694707 -0.13831735 0.035629734 -0.0363584 -0.20182328 -0.014753763
00000000: 2f84 213e dd37 d53a 0025 6e3e 89ea 2dbe
00000010: 87ac 243e 0656 c3bd 711c a2ba 95c5 28be
00000020: a82d 21bd f996 15be 913a 1bbd df4d 3dbe
00000030: f02e c63d d2b1 9d3c 4cd8 403d a456 ec3d
00000040: 8341 c8bd 4b6f a1bd 7f44 c3bd d9f7 2fbc
00000050: 033a b9bd 6155 d13d 1ae6 2a3e ea32 043e
00000060: e366 5d3e 6af8 923d ff83 1fbe 134e 50be
00000070: e0ff cd3c 423c 2f3e 66bc f8bd 0b01 70be
00000080: 3c49 5d3e 3fbb c33d f2ef fb3d d064 3b3d
00000090: 2f10 2bbe 7344 b5bc a585 9fbd 833d f3bd
000000a0: 483d cd3d 5ce7 cebc 5d7a 23bd c8db acbd
000000b0: 08a8 e13d df69 efbd 21a4 23be f60e dbbd
000000c0: ab80 49be 7b7a a93d 8c9c 0b3e a52a 2abe
000000d0: 2a2c cc3d c510 cbbd 2a14 55bb 4901 bebd
000000e0: b643 1c3e e71a 843d 9d1e 37be f351 23be
000000f0: 6194 1ebe 41fc 603e 9558 f03d d3ec f93d
00000100: 8c7d 5cbe 2628 143d eb2f 513e 1915 fd3c
00000110: 582e 203e 2da9 34be c5d8 343d fdcd 233e
00000120: 9a55 873d f428 1c3e 3ee0 b83d 5296 3dbd
00000130: 69dd 12be 609b 153d bdf0 d63d 0de8 6f3e
00000140: f271 09be d2d7 dfbd e0b8 0e3e 2971 cbbc
00000150: c7b2 6dbe c6cb 0bbe 666c 3bbe 902c 2abe
00000160: a4ce 853d d3a9 593d adc7 98bc e0c2 3f3e
00000170: c36b f43d ef7a 1cbe 01c9 423e 8df7 febd
00000180: 8862 143d 2faa a03d 8061 4f3d c998 463e
00000190: 25e6 21be cd02 5f3e 5bb5 973d b7ca 913d
000001a0: d0d8 c83d 446b b93d f975 f7bd bcd9 f6bd
000001b0: e3cc e8ba 3d0d 773e 6274 3e3e 3b37 053e
000001c0: 1078 dcbd da4d 00bd 8653 2f3e bc73 e1bc
000001d0: 33a5 a63c 281a 743d 0eb7 7c3a d47d 3bbe
000001e0: 3d8b 0cbd 11c5 273e f0f0 033e bb50 91bd
000001f0: 991c 92bd e692 383d 2e1d 61be c79e 0dbd
00000200: d355 d93d 5f98 99bc e35f 5b3e 2f28 d23d
00000210: 6cb5 833d 6ec4 dcbb 90b5 133e 1211 fb3d
00000220: ac75 323d 2c0f 2ebe 342b 603e 8c87 483e
00000230: 0c7d e63b f836 15be a6ba 11be 3f10 413d
00000240: 1d03 73bd 15ce 6ebe 1d0f e33d a517 dc3d
00000250: 4972 5ebe 558b 703e 2994 4f3e 0fee 163e
00000260: 1969 ca3d 0f56 813d de63 4f3c ee72 e5bd
00000270: 5c31 92bd 2f59 6b3e ddcc 54be bd51 c4bc
00000280: e642 b63d 966e c6bd 3c48 2c3e 6d15 f8bd
00000290: c4cd 56bd 0406 1b3d 6189 06be 3f40 1cbd
000002a0: bb1e a6bd fd96 933b 4e86 483e e411 fbbd
000002b0: 24ad 9bbd 2fb3 eebc 53ca 783d e3fc 4abe
000002c0: 7068 4cbe eff9 4cbe e7fa 8abd 2672 0b3d
000002d0: 7b67 4dbe 991f 5e3d 41dc 023e 3f94 1dbe
000002e0: facf 62be c103 23bd c5af 203e 8bb9 2c3d
000002f0: 2203 59be e73d 663e c81b 29be 7546 5dbe
00000300: a2ab 953d 5670 5dbd de81 c53d 7cc5 21be
00000310: 1bfe 80bc 33e1 1ebd 0ba1 e83c 12b2 d53d
00000320: 8c6b a4bc 0f47 ebbd 6aad 41be 865b 643e
00000330: 66af 823d fb56 583d 4954 b4bd f75b 2abe
00000340: 3084 123e dae2 503d 46fa 3cbe e4d4 50be
00000350: 533b 7dbd c963 0dbe 45e9 5a3e 4620 8abc
00000360: ebe9 f1bc ae15 7a3c fd81 2abe e782 1abd
00000370: becb 02bb 30ad efbd dd0c e3bd a6a3 6d3e
00000380: b35b 54bc cb6c b53d f1b1 0a3e 05c5 5dbe
00000390: 86db 0dbd 9aa6 36be 7266 c03d e962 40bd
000003a0: 29fb 953d 357e 64be 93fa 61be b614 c03d
000003b0: 33ba dc3d ba95 20be 5486 3bbd 56b7 1a3d
000003c0: 054e fabd 81df bbbd 7323 13be 035d 4e3e
000003d0: 71a0 663e 3b29 54bd c8c2 603e 1611 6f3e
000003e0: 0b1a 0dbe 8b03 ff3d ba89 2d3e 10a3 0dbe
000003f0: 7cf0 113d 8cec 14bd c3aa 4ebe c4b9 71bc

board_tower.0.bias f4 [16]
0.10726256 0.082129136 -0.16110836 0.20362349 0.071611024 0.059915263 -0.15797646 0.023772735
0.14718975 0.103197075 0.21730651 0.13625121 0.18729393 -0.014182307 0.10535913 -0.199633
00000000: 79ac db3d 5233 a83d 97f9 24be ad82 503e
00000010: cda8 923d b569 753d 95c4 21be 0abf c23c
00000020: e9b8 163e fd58 d33d 9985 5e3e 7085 0b3e
00000030: fbc9 3f3e e85c 68bc 87c6 d73d 986c 4cbe

board_tower.2.weight f4 [32, 16, 3, 3]
-0.06101146 0.08346296 0.022037389 -0.061983287 0.07967661 0.063712135 0.021528205 -0.02622932
0.039988518 0.025821595 -0.02617164 -0.012529347 0.08018144 -0.008230923 0.026407547 0.009741934
0.046545748 0.008097402 0.020187138 0.015080774 0.048859652 -0.07711216 0.011177814 -0.048280675
-0.019795021 -0.057328347 -0.010398512 0.033376116 0.044863325 0.022578627 0.078348964 -0.016875237
-0.012219112 -0.007566313 0.024002895 0.061981514 -0.007511632 -0.060039535 0.058247097 0.07551713
0.07953851 0.03607288 -0.07352411 0.030543009 -0.06937168 0.07001601 -0.032658506 -0.011077847
-0.01390726 0.009910885 0.018528804 0.053363886 -0.045826007 0.00034705538 -0.032277014 0.042397805
-0.005458354 0.04283508 -0.029588256 0.054756112 -0.07018595 0.038659137 0.048522092 0.0462506
0.0227744 0.03348799 0.0281951 -0.028806688 -0.027825898 -0.0038708933 -0.05732556 0.009200249
0.077177204 0.048968296 0.03931749 0.08410208 0.03041719 -0.0013974762 -0.00018404204 0.0615422
-0.009219013 -0.07623372 0.05474208 -0.05625105 0.03540971 0.016873905 0.051718425 0.07847645
0.04700402 0.079637006 -0.025578005 -0.07378577 -0.0016530002 -0.06458445 -0.044460278 -0.07270129
-0.052831054 0.04077526 -0.015743963 3.412258e-05 -0.04282521 -0.08073154 0.06844024 0.083042346
-0.076939866 0.02513915 -0.06502673 0.057702854 -0.00277673 -0.075656615 -0.0082985815 0.016732253
0.040983118 -0.054386143 -0.00476617 -0.024069635 0.032838743 0.053105623 -0.020890074 -0.065953895
0.015444869 -0.024459718 -0.033303715 0.047509737 -0.05881552 0.05365109 -0.06661917 0.060633045
-0.074880496 -0.04555629 0.0027752505 -0.026941294 0.02782697 -0.028785754 -0.061466277 -0.054676034
0.00323378 -0.0121191 -0.030939978 0.037226815 0.05713574 -0.06648229 -0.05788654 0.03318554
-0.043730687 -0.031603582 -0.003614815 0.053386852 0.040709272 0.03260846 0.06952122 0.020862063
0.0011879937 -0.049320817 0.0049202074 0.06751255 0.021528142 0.05451544 0.015058624 -0.01792316
0.0073036356 0.029790105 0.0005647 0.009884157 0.048628632 0.031173699 0.04859548 0.023641568
0.048816223 0.05446034 0.015140562 0.04690881 0.059611347 0.0030003837 0.06369903 -0.0028299391
0.0022155265 0.024677161 -0.030923849 0.04808389 -0.042102695 0.014736232 -0.023394918 -0.061049636
0.057430517 -0.010380272 -0.060757957 0.08038409 -0.0047189165 -0.015177763 -0.0489423 0.046400603
-0.07850959 0.05187159 -0.038070567 0.030942166 -0.043932833 -0.0027167627 -0.061087213 0.015610855
-0.029400105 -0.06998043 0.021442859 0.041079823 0.06384705 -0.013420661 0.044496495 -0.031008648
-0.06731825 -0.022534328 0.07828624 0.0042726346 0.06341337 -0.07777363 -0.006681867 -0.055755846
-0.027552973 0.026398523 0.029429307 -0.03899938 -0.07119716 0.0126411505 -0.036144257 -0.048411436
0.056103326 -0.04155793 0.0034897232 -0.06406393 0.035459142 0.042752504 0.048844766 0.0022793822
0.06271782 0.030013269 -0.07576797 0.032520078 0.046104684 0.047521 0.015511055 -0.033525355
0.07326338 -0.05145188 0.048119552 -0.06909559 0.070243984 0.010934576 0.028629916 -0.050248735
0.015274307 0.074055344 -0.041248232 -0.018574346 -0.04830688 0.0229353 0.05866163 0.04866174
00000000: 27e7 79bd a1ee aa3d c187 b43c 30e2 7dbd
00000010: 7e2d a33d 827b 823d eb5b b03c dfde d6bc
00000020: 00cb 233d cf87 d33c e865 d6bc e447 4dbc
00000030: 2b36 a43d feda 06bc a454 d83c a29c 1f3c
00000040: c1a6 3e3d f7aa 043c 7f5f a53c 5a15 773c
00000050: 0f21 483d fbec 9dbd 2623 373c f5c1 45bd
00000060: 2b29 a2bc 21d1 6abd 855e 2abc 65b5 083d
00000070: 9bc2 373d d0f6 b83c 6c75 a03d f03d 8abc
00000080: ac32 48bc d5ee f7bb b8a1 c43c 54e0 7d3d
00000090: 2324 f6bb 04ec 75bd 8294 6e3d baa8 9a3d
000000a0: 16e5 a23d 28c1 133d cf93 96bd 5535 fa3c
000000b0: bd12 8ebd 8e64 8f3d edc4 05bd dc7f 35bc
000000c0: 47db 63bc 4461 223c b8c9 973c 1794 5a3d
000000d0: 0db4 3bbd fcf4 b539 e734 04bd 52a9 2d3d
000000e0: fedb b2bb d673 2f3d 1263 f2bc f247 603d
000000f0: a7bd 8fbd 0b59 1e3d 1abf 463d 4571 3d3d
00000100: 6191 ba3c b42a 093d 69f9 e63c 01fc ebbc
00000110: 23f3 e3bc d0ae 7dbb 35ce 6abd a4bc 163c
00000120: 150f 9e3d fb92 483d 600b 213d b63d ac3d
00000130: 792d f93c 852b b7ba 69fb 40b9 ad13 7c3d
00000140: 580b 17bc 6d20 9cbd 3b39 603d 8067 66bd
00000150: c609 113d 253b 8a3c b3d6 533d 43b8 a03d
00000160: 4a87 403d ba18 a33d f788 d1bc fe1c 97bd
00000170: 7ca9 d8ba da44 84bd fb1b 36bd 6ae4 94bd
00000180: 6065 58bd f603 273d 7cf9 80bc d71e 0f38
00000190: 7d69 2fbd 9456 a5bd 662a 8c3d 1b12 aa3d
000001a0: a692 9dbd 9ef0 cd3c bc2c 85bd d459 6c3d
000001b0: cdf9 35bb dbf1 9abd c6f6 07bc 1412 893c
000001c0: eadd 273d 01c4 5ebd 882d 9cbb af2d c5bc
000001d0: eb81 063d 4885 593d a921 abbc d612 87bd
000001e0: 7a0c 7d3c bf5f c8bc 7a69 08bd 9299 423d
000001f0: 8be8 70bd 3fc1 5b3d a26f 88bd 5b5a 783d
00000200: f25a 99bd 3b99 3abd fae0 353b fdb3 dcbc
00000210: 63f5 e33c 1ad0 ebbc 10c4 7bbd faf3 5fbd
00000220: d3ed 533b 318f 46bc d675 fdbc 257b 183d
00000230: 2a07 6a3d de27 88bd 701a 6dbd 90ed 073d
00000240: f31e 33bd c272 01bd 88e6 6cbb 2cac 5a3d
00000250: c4be 263d 7390 053d 2461 8e3d ebe6 aa3c
00000260: 74b6 9b3a a004 4abd b139 a13b 0544 8a3d
00000270: c95b b03c 954b 5f3d 72b8 763c 97d3 92bc
00000280: 5653 ef3b 610a f43c 6008 143a 29f1 213c
00000290: d12e 473d fc5f ff3c 0e0c 473d f6ab c13c
000002a0: 85f3 473d ce11 5f3d 1f10 783c 7423 403d
000002b0: 072b 743d 16a2 443b a374 823d 8076 39bb
000002c0: 5e32 113b c227 ca3c 0354 fdbc 9df3 443d
000002d0: e073 2cbd 3d70 713c b3a6 bfbc 2f0f 7abd
000002e0: 433c 6b3d 0412 2abc 56dd 78bd 6aa0 a43d
000002f0: 24a1 9abb 27ac 78bc b977 48bd 8f0e 3e3d
00000300: a3c9 a0bd 4e77 543d e2ef 1bbd 6d7a fd3c
00000310: eaf2 33bd b70b 32bb 9636 7abd acc4 7f3c
00000320: 7dd8 f0bc e651 8fbd efa8 af3c 5143 283d
00000330: 3ec2 823d 55e2 5bbc f541 363d d905 febc
00000340: 27de 89bd e999 b8bc 8954 a03d 7501 8c3b
00000350: dede 813d c847 9fbd 90f3 dabb 3e60 64bd
00000360: c6b6 e1bc b741 d83c bb15 f13c d0bd 1fbd
00000370: d1cf 91bd d41c 4f3c 000c 14bd 124b 46bd
00000380: 9acc 653d a638 2abd d7b3 643b f333 83bd
00000390: 9b3d 113d 401d 2f3d 7311 483d b061 153b
000003a0: 3372 803d 63de f53c 3d2c 9bbd c633 053d
000003b0: 44d8 3c3d 61a5 423d 1422 7e3c e251 09bd
000003c0: 1c0b 963d 35bf 52bd 0219 453d fd81 8dbd
000003d0: 14dc 8f3d f026 333c 4989 ea3c 9ed1 4dbd
000003e0: 1641 7a3c 54aa 973d e8f3 28bd 3a29 98bc
000003f0: 6fdd 45bd cfe2 bb3c 2d47 703d 8851 473d

board_tower.2.bias f4 [32]
0.08284976 0.03912178 0.07029869 -0.07376144 0.004194141 -0.043669578 0.05815632 0.012897274
-0.030468801 -0.03705068 -0.07373785 -0.003266002 0.001509755 -0.06507784 0.076304205 -0.026747648
-0.065715626 0.048377268 -0.008179349 0.085291386 -0.05554791 -0.03259074 0.06277428 -0.006171701
0.026469646 -0.054876383 -0.024859043 0.02534132 -0.026396902 0.02296785 -0.0746204 -0.024737906
00000000: 23ad a93d 293e 203d c2f8 8f3d 3d10 97bd
00000010: 016f 893b dfde 32bd 5235 6e3d 174f 533c
00000020: b599 f9bc 74c2 17bd df03 97bd 6c0a 56bb
00000030: f9e2 c53a 8847 85bd 6145 9c3d e21d dbbc
00000040: ea95 86bd 3e27 463d ad02 06bc 40ad ae3d
00000050: 3586 63bd de7d 05bd cd8f 803d fb3b cabb
00000060: dfd6 d83c 0fc6 60bd 31a5 cbbc 9a98 cf3c
00000070: 513e d8bc 1327 bc3c 95d2 98bd 26a7 cabc

hand_tower.0.weight f4 [32, 3]
-0.454444 -0.41137904 0.3033253 0.46954793 0.030737288 0.065719515 0.114709824 0.45966068
0.018029878 0.017728388 0.31027952 -0.49695066 -0.5369142 -0.45045584 -0.04083687 0.09868532
0.37840107 0.36135837 -0.28304905 -0.5670763 -0.36942083 0.4232603 -0.19454028 -0.24118401
-0.16864982 -0.18506244 -0.42271906 0.08764717 0.045952626 0.23971255 -0.021459727 -0.12799911
0.047210064 -0.31283334 0.19376715 -0.039877415 -0.4970068 -0.14404689 0.11740327 0.22317487
-0.5292567 0.4576152 0.2771084 0.32164574 -0.024221106 0.108667076 -0.47684318 -0.120874256
0.100752175 -0.5379072 -0.37034374 -0.22798863 -0.02547884 -0.2378991 0.562248 0.20931944
0.12568082 0.06473154 -0.51142144 0.33872753 0.23164149 0.53351897 0.31677064 -0.24591869
0.50416934 -0.051801056 0.31117043 0.5320067 -0.3376223 -0.36315915 -0.11872604 0.21046382
0.5516727 -0.5555937 -0.2137627 -0.08796607 0.24906562 -0.07336815 -0.23464732 0.12611331
0.0853762 0.36745054 -0.42918724 -0.51243335 0.42954552 -0.2782374 -0.46448812 0.30811647
0.54144275 0.25791225 -0.32981032 -0.06258678 0.15577218 0.51011896 -0.36513236 0.3509256
00000000: e2ac e8be 46a0 d2be 744d 9b3e 9668 f03e
00000010: c4cc fb3c f497 863d fcec ea3d a558 eb3e
00000020: 65b3 933c 203b 913c f5dc 9e3e 5170 febe
00000030: 3673 09bf 26a2 e6be 9044 27bd 871b ca3d
00000040: c9bd c13e f703 b93e ceeb 90be ea2b 11bf
00000050: ba24 bdbe 93b5 d83e 9135 47be f1f8 76be
00000060: 8ab2 2cbe 0281 3dbe a26e d8be 5c80 b33d
00000070: d238 3c3d 3577 753e 4fcc afbc 3312 03be
00000080: 575f 413d b12b a0be e56a 463e 8056 23bd
00000090: ad77 febe 0781 13be 2071 f03d f487 643e
000000a0: 5e7d 07bf 8a4c ea3e 27e1 8d3e c0ae a43e
000000b0: 576b c6bc d88c de3d ca24 f4be ec8c f7bd
000000c0: 2857 ce3d 49b4 09bf b29d bdbe da75 69be
000000d0: 00b9 d0bc d29b 73be 7cef 0f3f d657 563e
000000e0: 79b2 003e f891 843d 84ec 02bf b26d ad3e
000000f0: 6d33 6d3e b394 083f c32f a23e 1cd2 7bbe
00000100: 3e11 013f 582d 54bd bb51 9f3e 9731 083f
00000110: d5dc acbe ffef b9be a326 f3bd d483 573e
00000120: 6c3a 0d3f 643b 0ebf 9ce4 5abe 8e27 b4bd
00000130: 0f0b 7f3e 0a42 96bd 6347 70be d923 013e
00000140: b8d9 ae3d 7a22 bc3e 6ebe dbbe d52e 03bf
00000150: 64ed db3e 2275 8ebe 63d1 edbe 71c1 9d3e
00000160: fe9b 0a3f 130d 843e e6dc a8be 7f2d 80bd
00000170: be82 1f3e 2897 023f a1f2 babe 85ac b33e

hand_tower.0.bias f4 [32]
0.47607756 0.36342824 0.5714676 0.26872185 0.405205 0.28322792 -0.5182031 0.16023788
0.4107905 -0.5520467 0.45873976 -0.06990098 0.42718577 0.07618756 0.39975122 -0.1497772
0.12687129 -0.42218137 -0.27728495 -0.41140294 0.3953 0.068384245 0.053103518 -0.0003849548
0.4187755 -0.47929782 -0.43076396 0.21431357 -0.16627672 0.49774846 -0.17672805 -0.22016859
00000000: 70c0 f33e 4413 ba3e b34b 123f e995 893e
00000010: 0877 cf3e 4003 913e f5a8 04bf 6615 243e
00000020: 2253 d23e ef52 0dbf f0df ea3e 3f28 8fbd
00000030: 18b8 da3e 3908 9c3d 31ac cc3e 325f 19be
00000040: 8cea 013e 2828 d8be 4bf8 8dbe 68a3 d2be
00000050: c364 ca3e 0a0d 8c3d 1383 593d c2d3 c9b9
00000060: be69 d63e 8666 f5be 188d dcbe 0475 5b3e
00000070: 7244 2abe e3d8 fe3e 33f8 34be e073 61be

hand_tower.2.weight f4 [32, 32]
-0.16803157 0.10356738 -0.07594139 -0.08395433 0.08316682 0.12243383 0.15978645 -0.016372189
-0.1466399 -0.08092696 -0.021592319 0.16165079 0.15546618 -0.11994548 -0.039048195 -0.17550074
-0.08687342 0.07853128 0.15481989 -0.032567963 -0.026286334 -0.0797148 -0.11540513 -0.09168062
-0.12411589 -0.01755789 -0.0034139156 -0.1579109 0.13719167 -0.1609612 -0.07657635 0.012087941
0.034787863 0.0059020966 -0.06974237 0.11917947 -0.120798424 -0.0744559 0.07937737 0.08506413
-0.14101675 -0.038746163 0.06973854 0.16324668 0.01357542 0.14518453 -0.14474165 0.045815527
0.026260316 0.16299407 -0.090227045 -0.17190717 -0.09140665 0.028937042 -0.14600176 -0.029646263
-0.012460321 0.04663378 0.06282179 -0.04033561 0.14358054 -0.16347793 -0.097834595 0.042655736
0.16140248 -0.010273726 0.016737178 0.005922593 0.16706373 0.08640874 0.03600222 0.09530902
0.09508453 0.14875087 0.17506324 -0.0042303633 -0.15291998 -0.03391687 0.14542943 0.0368229
0.07658543 0.028611213 -0.07033327 0.052307982 0.07488632 0.04078484 0.17608723 -0.007803923
-0.09115725 0.006658756 0.011268298 -0.080853775 -0.0073675215 -0.12374518 0.0057118344 -0.11237646
0.13419367 -0.018638665 0.1619339 0.0056227753 0.10017793 -0.009987831 -0.0025641024 0.04066441
0.04701294 -0.047159847 0.050404802 0.045833778 -0.022159074 0.039797556 0.09258863 -0.0914633
-0.011515006 -0.07901973 0.15586339 0.059026968 0.0731892 0.07192781 0.103356905 -0.028088478
-0.018276207 0.037798762 0.035182856 0.025308564 0.06765132 0.0331955 -0.14206657 0.09278769
0.002788352 0.10925056 0.088017546 -0.029134108 -0.07833921 0.1117899 -0.12248376 -0.058422368
-0.16450118 -0.08255139 -0.11045294 0.010910777 0.07991987 0.039011482 -0.029673925 -0.16928615
0.04940431 0.10699038 -0.031201677 0.1123673 0.11071133 0.13681766 0.09375618 0.02548788
0.16797334 0.028638866 -0.13747002 -0.0036929697 0.14797612 -0.03051263 0.06820661 -0.13441843
0.11858864 -0.1179751 -0.107071646 -0.047112122 0.13298927 -0.083997235 -0.038803652 0.02181466
-0.045246914 0.1489514 0.17116047 -0.090394154 0.05256182 0.018844515 0.15570195 -0.092355795
0.16835932 0.12921517 0.042141795 -0.16562851 -0.10267149 -0.081139155 -0.13271195 -0.08295107
-0.0131943375 -0.13771272 -0.17544065 -0.026888654 0.07853083 0.07347809 -0.041940242 -0.09408028
0.08039126 -0.018441826 0.16013148 -0.0066537154 0.09099893 0.15992756 -0.079753995 -0.13931005
0.07885845 0.05448608 -0.16165547 -0.06348569 0.15453409 -0.076316945 0.008552903 -0.13686813
0.15342663 0.17383222 -0.027841376 0.015061573 -0.01495883 -0.14152081 -0.0781642 -0.08317969
-0.09694351 0.1396889 -0.00038513317 -0.15649523 0.0044317394 0.17688297 -0.008239355 -0.117045686
0.14576122 0.07485295 -0.11344755 -0.075798355 0.08621384 0.14289087 -0.1741339 0.004844914
0.056709126 -0.11912905 -0.121279895 -0.09501987 -0.16005908 0.1469266 0.044001106 -0.10574796
0.05059558 -0.14639775 -0.10549547 -0.09338764 0.06860112 -0.13089344 -0.02789497 -0.035636462
-0.037754502 0.05537125 -0.018811125 -0.10090535 0.17180042 -0.008896956 -0.017165905 0.03523607
00000000: 7810 2cbe 221b d43d 2987 9bbd 3ff0 abbd
00000010: 5e53 aa3d 96be fa3d 0f9f 233e f81e 86bc
00000020: c528 16be 09bd a5bd 60e2 b0bc c987 253e
00000030: 8732 1f3e faa5 f5bd 00f1 1fbd 77b6 33be
00000040: b1ea b1bd 02d5 a03d 1b89 1e3e fc65 05bd
00000050: 7056 d7bc 8341 a3bd 8659 ecbd 0dc3 bbbd
00000060: 7930 febd 90d5 8fbc 00bc 5fbb 65b3 21be
00000070: f97b 0c3e 03d3 24be 10d4 9cbd 800c 463c
00000080: b87d 0e3d 6066 c13b 16d5 8ebd 5e14 f43d
00000090: 2a65 f7bd 567c 98bd 9a90 a23d 1a36 ae3d
000000a0: b266 10be 4cb4 1ebd 14d3 8e3d 232a 273e
000000b0: 706b 5e3c 41ab 143e 2837 14be 10a9 3b3d
000000c0: e01f d73c ebe7 263e f5c8 b8bd 6f08 30be
000000d0: 6933 bbbd 600d ed3c 7c81 15be b8dc f2bc
000000e0: 6026 4cbc 1003 3f3d b6a8 803d f436 25bd
000000f0: c706 133e c266 27be 815d c8bd c8b7 2e3d
00000100: b146 253e 2153 28bc 681c 893c 5012 c23b
00000110: c112 2b3e 11f7 b03d 1077 133d 6031 c33d
00000120: aebb c23d 2652 183e c743 333e dc9e 8abb
00000130: 0e97 1cbe 6aec 0abd 74eb 143e 9cd3 163d
00000140: d2d8 9c3d 1062 ea3c e40a 90bd e540 563d
00000150: 005e 993d 010e 273d 3650 343e 0db8 ffbb
00000160: a7b0 babd b231 da3b ab9e 383c aa96 a5bd
00000170: 406b f1bb 1d6e fdbd 572a bb3b a125 e6bd
00000180: 116a 093e 1db0 98bc 00d2 253e 423f b83b
00000190: 162a cd3d 00a4 23bc 800a 28bb b98f 263d
000001a0: a490 403d af2a 41bd 4475 4e3d 33bc 3b3d
000001b0: f286 b5bc c302 233d 1c9f bd3d 1c51 bbbd
000001c0: 70a9 3cbc 19d5 a1bd a79a 1f3e 43c6 713d
000001d0: 38e4 953d e34e 933d c9ac d33d cf19 e6bc
000001e0: fcb7 95bc e0d2 1a3d e61b 103d e853 cf3c
000001f0: c68c 8a3d 01f8 073d e679 11be 7907 be3d
00000200: c9bc 363b c2be df3d 8b42 b43d a7aa eebc
00000210: 4f70 a0bd 1af2 e43d c4d8 fabd 4b4c 6fbd
00000220: ff72 28be b410 a9bd 2735 e2bd 1ec3 323c
00000230: 07ad a33d 81ca 1f3d bb16 f3bc 5959 2dbe
00000240: 2c5c 4a3d c61d db3d a99a ffbc d420 e63d
00000250: 9fbc e23d ee19 0c3e 3d03 c03d f5cb d03c
00000260: 3401 2c3e 0e9c ea3c f1c4 0cbe c005 72bb
00000270: 0d87 173e 9ff5 f9bc e8af 8b3d fca4 09be
00000280: 9ade f23d ee9c f1bd 6148 dbbd a4f8 40bd
00000290: 572e 083e be06 acbd 94f0 1ebd a8b4 b23c
000002a0: d454 39bd b786 183e b144 2f3e 9220 b9bd
000002b0: 104b 573d d05f 9a3c 5570 1f3e 0925 bdbd
000002c0: 6366 2c3e fb50 043e e09c 2c3d 859a 29be
000002d0: 6e45 d2bd 492c a6bd a4e5 07be 40e2 a9bd
000002e0: 102d 58bc 9004 0dbe b7a6 33be 9845 dcbc
000002f0: c6d4 a03d ae7b 963d 88c9 2bbd 29ad c0bd
00000300: 2ca4 a43d 5013 97bc 82f9 233e 6907 dabb
00000310: a65d ba3d 0dc4 233e 1056 a3bd 4ba7 0ebe
00000320: 8a80 a13d cc2c 5f3d 0389 25be c904 82bd
00000330: 2f3e 1e3e 0f4c 9cbd 7a21 0c3c 2927 0cbe
00000340: df1b 1d3e 1301 323e 9913 e4bc d1c4 763c
00000350: e115 75bc d5ea 10be 8d14 a0bd 1d5a aabd
00000360: 528a c6bd 9b0a 0f3e b3eb c9b9 4940 20be
00000370: 2038 913b cf20 353e 5cfe 06bc a6b5 efbd
00000380: 6e42 153e 814c 993d 3057 e8bd 2b3c 9bbd
00000390: e290 b03d fc51 123e 2850 32be 16c2 9e3b
000003a0: d447 683d eef9 f3bd 9861 f8bd c799 c2bd
000003b0: 87e6 23be ed73 163e 813a 343d 6392 d8bd
000003c0: 503d 4f3d 4be9 15be 020e d8bd 0542 bfbd
000003d0: be7e 8c3d ee08 06be fe83 e4bc 8af7 11bd
000003e0: 77a4 1abd f7cc 623d ca19 9abc 77a7 cebd
000003f0: 73ec 2f3e 8ac4 11bc 839f 8cbc b353 103d

hand_tower.2.bias f4 [32]
0.042452306 0.12354456 0.14702041 0.044265386 0.05000768 -0.07152027 0.055436667 0.039214496
-0.0825035 -0.05423429 -0.088309914 -0.11163305 -0.0029138962 -0.15034214 -0.051088303 0.09655441
-0.043308303 0.06808229 -0.08180742 -0.06074644 0.14562127 0.16259333 -0.02984555 -0.16627254
0.09984337 0.06470795 0.050508056 -0.09575337 0.10984884 0.032811716 0.15594698 0.012813732
00000000: 78e2 2d3d ee04 fd3d 858c 163e 9f4f 353d
00000010: dad4 4c3d 3879 92bd 8f11 633d 619f 203d
00000020: 98f7 a8bd c624 5ebd d4db b4bd de9f e4bd
00000030: 11f7 3ebb 4af3 19be f841 51bd 52be c53d
00000040: 0c64 31bd ba6e 8b3d a68a a7bd 42d1 78bd
00000050: be1d 153e de7e 263e a87e f4bc 5943 2abe
00000060: ae7a cc3d 9a85 843d 89e1 4e3d 581a c4bd
00000070: 6ef8 e03d 9465 063d 91b0 1f3e b0f0 513c

head.0.weight f4 [128, 320]
-0.024880972 -0.044564568 -0.03427216 -0.0043108794 -0.0315404 -0.008459437 0.028673172 0.019110987
-0.019538278 0.030030278 0.021923805 -0.05571762 0.00983136 -0.042525716 -0.012248627 -0.006402373
0.0011512638 -0.040492132 -0.014687018 -0.054934844 -0.0474936 -0.033471227 0.05599152 0.0020539295
-0.044085506 -0.011316425 0.0491917 -0.04595676 -0.01204875 0.01729602 -0.053088002 -0.033320416
-0.0404505 0.05478028 0.00048760738 0.03528266 -0.024723046 0.023015188 0.031913374 0.008549598
-0.05244099 0.05006152 -0.050953597 0.0412387 -0.015837992 0.043918617 0.051813427 0.017064884
-0.00628615 0.012354194 -0.029808536 -0.002176184 0.03048686 0.011413099 0.019674951 -0.005073455
-0.037290197 0.009604149 0.0076448815 -0.008633217 0.04904403 -0.049202427 -0.04777818 -0.041456252
0.013837449 -0.02409417 0.042207032 -0.02718851 0.031536855 -0.053476494 -0.023008388 -0.017892187
0.03472188 0.036727536 -0.013261326 0.0009983298 0.03933414 0.047626197 -0.004290226 0.009892046
0.021037992 -0.001806205 0.019946536 -0.040095877 0.00025173282 -0.04667315 -0.00872298 0.024778469
-0.044044897 -0.017098255 0.023796102 0.011942932 -0.038900644 0.02033412 -0.04112261 -0.03824414
0.038087633 -0.025456542 0.029218156 0.0070365844 0.03784047 0.014647358 0.042740855 -0.037708826
-0.013113516 -0.015052444 0.03190627 -0.049054794 0.053638954 -0.055878125 -0.052960258 0.039682403
0.015352401 -0.033658877 0.02062691 0.014290031 -0.018530257 -0.008510613 -0.0029213976 0.03254287
0.019811453 -0.04819251 -0.040785763 0.050928887 0.00072159804 0.05339188 -0.008632145 -0.0013663594
-0.015994048 -0.036164988 0.05459841 -0.021073194 -0.0035849637 -0.04751295 0.014976392 -0.007525623
0.017661558 -0.017568002 -0.0055885604 -0.009816234 -0.0014564901 -0.032526392 0.050175164 -0.055277105
-0.0150090195 -0.026812902 -0.017264472 -0.0036460664 -0.008662974 -0.0063513876 0.003952809 -0.044498526
0.010344757 0.014763514 0.018386157 -0.0016330029 -0.016913647 0.0004608454 -0.0071052196 0.036299422
-0.039229557 0.051948696 -0.0006264508 0.036459 -0.035408486 -0.045306608 -0.03292513 -0.039084032
0.04244394 -0.029366469 -0.0078092264 0.022261837 -0.04966319 0.022952722 0.017862147 0.053111896
0.046370737 -0.054302905 0.024699945 0.037339713 -0.018099114 0.010780893 0.037113156 0.015104018
-0.026949279 0.040326472 0.030681673 0.04933263 -0.022100018 -0.048239876 -0.021273747 -0.045964718
0.038947616 -0.03428601 -0.049082857 0.04952611 -0.05221828 -0.049224578 0.014416755 -0.034581143
0.047369473 -0.021854073 0.048279703 0.0108806575 0.024553504 -0.051401474 -0.009978172 0.049562566
0.01606852 -0.04534093 0.042644843 -0.025896478 0.052096557 0.0258214 0.03140628 0.051343776
-0.049803887 0.005280462 0.045726433 0.028762687 -0.015736058 -0.027716348 -0.044801753 0.05151158
0.03781455 -0.020842161 0.0026402283 0.021979138 -0.00088184554 0.03497549 -0.015033012 -0.009188562
-0.051142305 0.05026196 -0.02566876 0.041199572 0.055015806 0.02642433 0.04495514 0.021413185
-0.053388186 -0.006891849 0.010013043 0.03364583 -0.024034651 -0.047307536 0.013725042 -0.034881316
0.027250277 -0.042678297 0.03965882 0.01873488 -0.053399146 -0.0047227633 0.013564584 0.018304719
00000000: 2ed3 cbbc 5689 36bd f760 0cbd 4742 8dbb
00000010: 8230 01bd 7399 0abc 00e4 ea3c a58e 9c3c
00000020: bd0e a0bc 0f02 f63c 8d99 b33c 2938 64bd
00000030: b613 213c 722f 2ebd 77ae 48bc ffca d1bb
00000040: 01e6 963a 14db 25bd d1a1 70bc 5c03 61bd
00000050: a688 42bd 2019 09bd 5d57 653d 389b 063b
00000060: 0193 34bd 8768 39bc 3c7d 493d 283d 3cbd
00000070: 1f68 45bc 62b0 8d3c ce72 59bd fd7a 08bd
00000080: 6caf 25bd 4961 603d 8ea5 ff39 8d84 103d
00000090: fc87 cabc 598a bc3c 99b7 023d 9d13 0c3c
000000a0: 5dcc 56bd 4f0d 4d3d b8b4 50bd e9e9 283d
000000b0: adbe 81bc 02e4 333d 513a 543d a8cb 8b3c
000000c0: 0cfc cdbb 3f69 4a3c 0831 f4bc 4f9e 0ebb
000000d0: 94bf f93c 02fe 3a3c 5d2d a13c 3a3f a6bb
000000e0: 9bbd 18bd b85a 1d3c ea81 fa3b 5672 0dbc
000000f0: 65e2 483d 7c88 49bd 0eb3 43bd 08ce 29bd
00000100: 78b6 623c 2361 c5bc 48e1 2c3d 70ba debc
00000110: ca2c 013d 2b0a 5bbd 167c bcbc a392 92bc
00000120: 8838 0e3d 9d6f 163d 0846 59bc 64da 823a
00000130: d61c 213d b013 433d 0695 8cbb 4012 223c
00000140: de57 ac3c 2fbe ecba eb66 a33c 933b 24bd
00000150: 02fb 8339 582c 3fbd d4ea 0ebc 37fc ca3c
00000160: 6c68 34bd a411 8cbc 0bf0 c23c 4aac 433c
00000170: 4856 1fbd be93 a63c 2f70 28bd e3a5 1cbd
00000180: c701 1c3d 3d8a d0bc ea5a ef3c 2693 e63b
00000190: 9cfe 1a3d 79fb 6f3c 0911 2f3d 9274 1abd
000001a0: 13da 56bc 879e 76bc 26b0 023d aeed 48bd
000001b0: 85b4 5b3d 76e0 64bd dbec 58bd 048a 223d
000001c0: a388 7b3c e4dd 09bd c4f9 a83c bc20 6a3c
000001d0: c4cc 97bc 1970 0bbc eb74 3fbb ac4b 053d
000001e0: a14b a23c 8265 45bd f90e 27bd cf9a 503d
000001f0: a029 3d3a 72b1 5a3d d76d 0dbc 6a17 b3ba
00000200: f305 83bc bd21 14bd 95a2 5f3d b1a1 acbc
00000210: b6f1 6abb f09c 42bd 8a5f 753c 8099 f6bb
00000220: f9ae 903c c5ea 8fbc 3e20 b7bb 45d4 20bc
00000230: b3e7 beba 653a 05bd 7984 4d3d 3f6a 62bd
00000240: 64e8 75bc bba6 dbbc 396e 8dbc d8f2 6ebb
00000250: 26ef 0dbc 4d1f d0bb 9186 813b 1644 36bd
00000260: 0e7d 293c aae2 713c 919e 963c 7c0a d6ba
00000270: 7d8e 8abc 9f9d f139 e7d2 e8bb b4ae 143d
00000280: 2caf 20bd 28c8 543d 6738 24ba 0856 153d
00000290: 7d08 11bd 6c93 39bd 80dc 06bd 9416 20bd
000002a0: b2d9 2d3d f391 f0bc 8ae4 ffbb 755e b63c
000002b0: a16b 4bbd 5907 bc3c a353 923c dc8b 593d
000002c0: 3eef 3d3d b96c 5ebd 8a57 ca3c 87f1 183d
000002d0: 9844 94bc 58a2 303c f703 183d d876 773c
000002e0: bcc4 dcbc 5f2d 253d 2258 fb3c 0311 4a3d
000002f0: 190b b5bc 2d97 45bd 4846 aebc 8045 3cbd
00000300: 8987 1f3d 7d6f 0cbd 1b0b 49bd e4db 4a3d
00000310: d6e2 55bd b69f 49bd 4134 6c3c f5a4 0dbd
00000320: 7e06 423d 5007 b3bc f0c0 453d c944 323c
00000330: 6e24 c93c 5a8a 52bd 7d7b 23bc 1e02 4b3d
00000340: 21a2 833c 69b7 39bd 5cac 2e3d da24 d4bc
00000350: 3363 553d 6787 d33c dfa3 003d da4d 523d
00000360: 29ff 4bbd ba07 ad3b a44b 3b3d ba9f eb3c
00000370: e8e8 80bc 650d e3bc 0b82 37bd cefd 523d
00000380: 6ee3 1a3d 2ebd aabc ae07 2d3b 980d b43c
00000390: a72b 67ba 7642 0f3d 064d 76bc 9f8b 16bc
000003a0: 987a 51bd 7cdf 4d3d 4b47 d2bc e2c0 283d
000003b0: 4158 613d d677 d83c e222 383d b46a af3c
000003c0: 92ad 5abd 05d5 e1bb bf0d 243c 36d0 093d
000003d0: 51e4 c4bc 8cc5 41bd 00df 603c b6df 0ebd
000003e0: f93b df3c 70cf 2ebd 4971 223d e479 993c
000003f0: 10b9 5abd 69c1 9abb fd3d 5e3c c7f3 953c

head.0.bias f4 [128]
0.053447165 -0.0349516 0.0444262 0.021380605 -0.038035423 -0.027725253 0.026366388 -0.031066563
0.0134798745 -0.054805156 -0.0054265624 -0.035822473 0.016860554 0.028502265 0.047304306 -0.0065825507
-0.049843412 0.008126422 0.052940626 0.036468543 -0.0038618671 0.05419844 -0.004332706 -0.019182311
0.048091874 0.00561171 -0.009373189 0.0024085226 -0.007872689 -0.050907563 0.037810527 -0.034650404
-0.045536075 -0.04637632 0.03355174 0.002234839 -0.02664778 -0.055312503 0.03626792 -0.018310284
0.032453824 0.03450206 0.053918976 -0.010667146 0.032633785 0.04118981 0.042103004 0.05394151
0.030144684 0.008028474 0.04681329 0.041423377 -0.046037804 0.0026080844 0.026213037 0.043264713
-0.034222953 -0.023880268 -0.05566268 -0.012639488 0.026740804 0.021403817 -0.032210294 -0.022734111
0.019626496 -0.050331052 0.030480219 -0.04428595 -0.04664798 0.039074793 -0.009263845 -0.02423598
0.05467583 0.012482042 0.009187801 0.025572482 -0.021675799 -0.019052701 -0.009593187 0.025280528
0.024861779 0.03914171 0.036113057 -0.015069457 -0.037534703 -0.020984367 0.048540883 0.011490228
-0.0299651 -0.041280467 -0.046654478 -0.03655796 0.02553831 0.01702083 -0.020982334 -0.040538367
0.019183762 0.0056056557 -0.02073002 0.009728117 -0.012261045 -0.045882117 -0.03283503 -0.0054436577
-0.0028200555 -0.03400766 0.052052703 -0.014726989 -0.000266779 0.018762438 -0.021921072 0.034192484
-0.029945938 -0.035448875 -0.0048542917 0.032450255 -0.05395459 -0.025335468 0.019470595 0.013331227
0.029144708 -0.041525204 -0.017946124 0.026357085 -0.012738346 0.0039739427 -0.043912917 0.02859709
00000000: 6aeb 5a3d 6929 0fbd 3ff8 353d 6126 af3c
00000010: 08cb 1bbd 1220 e3bc 53fe d73c 4e7f febc
00000020: b1da 5c3c 5f7b 60bd 4ed1 b1bb 96ba 12bd
00000030: 251f 8a3c 957d e93c 29c2 413d 70b2 d7bb
00000040: 9b28 4cbd af24 053c 45d8 583d 0a60 153d
00000050: 6117 7dbb 2fff 5d3d 5ff9 8dbb 3924 9dbc
00000060: fcfb 443d 6fe2 b73b 0192 19bc 4ed8 1d3b
00000070: 73fc 00bc 7384 50bd 36df 1a3d 95ed 0dbd
00000080: 0984 3abd 19f5 3dbd 8d6d 093d 6076 123b
00000090: 724c dabc 5d8f 62bd ac8d 143d 73ff 95bc
000000a0: 4dee 043d 0852 0d3d 25da 5c3d 41c5 2ebc
000000b0: 01ab 053d a5b6 283d 3374 2c3d c6f1 5c3d
000000c0: fcf1 f63c dc89 033c 4bbf 3f3d 8fab 293d
000000d0: 2392 3cbd 65ec 2a3b b9bc d63c 5736 313d
000000e0: 5e2d 0cbd 8da0 c3bc 8dfe 63bd db15 4fbc
000000f0: 880f db3c 0f57 af3c f1ee 03bd e33c babc
00000100: bfc7 a03c ef27 4ebd a7b1 f93c 2f65 35bd
00000110: f411 3fbd e40c 203d 62c7 17bc 898a c6bc
00000120: c3f3 5f3d 7b81 4c3c 6e88 163c 627d d13c
00000130: 7291 b1bc 6914 9cbc be2c 1dbc 1c19 cf3c
00000140: eeaa cb3c 0f53 203d 49eb 133d e2e5 76bc
00000150: fdbd 19bd 68e7 abbc ced2 463d 8241 3c3c
00000160: 5f79 f5bc b515 29bd c418 3fbd cdbd 15bd
00000170: b835 d13c 456f 8b3c 25e3 abbc 8f0b 26bd
00000180: 4427 9d3c a6af b73b 01d2 a9bc ae62 1f3c
00000190: 8de2 48bc e3ee 3bbd 067e 06bd b660 b2bb
000001a0: aed0 38bb 9e4b 0bbd 3735 553d 7849 71bc
000001b0: 79de 8bb9 afb3 993c d293 b3bc 6b0d 0c3d
000001c0: 2f51 f5bc d732 11bd c010 9fbb 8fea 043d
000001d0: 7dff 5cbd 548c cfbc cc80 9f3c 386b 5a3c
000001e0: e2c0 ee3c 5516 2abd c003 93bc d0ea d73c
000001f0: 7fb4 50bc d937 823b 08de 33bd 7244 ea3c

head.2.weight f4 [36, 128]
0.0019948978 -0.003960187 0.003015856 -0.006806634 0.00094146613 0.0009821538 0.0008668224 0.0
-0.0016299222 -0.000356146 7.6822283e-07 0.004597287 0.006644895 -0.0005590346 -0.005543304 -0.011759515
0.0007710313 -0.001140711 6.4214605e-06 -0.001812185 0.006773992 -0.0054440526 0.0 -0.0041272272
-0.0015986746 -0.0012223744 -0.00078593654 -0.00012340365 -0.00044133668 0.0 0.0012257543 -0.0024229942
0.002242385 0.0011128803 0.009349588 0.0 -0.0039404533 4.2563033e-06 -0.0015570065 0.002361793
0.0028356675 0.001510746 -0.00697064 0.00029784016 -0.0003071577 0.001995497 -5.174178e-05 0.005240887
0.002773902 -0.001242757 -0.0009300667 0.00017162331 0.0 -0.0019886035 -0.002146 -0.0024511926
0.0051711914 0.0011197822 0.0 0.0023908266 0.0019295991 -0.00078521646 0.005840216 0.0026139538
3.6712374e-06 -6.3872386e-07 -0.004661108 0.00043099312 0.0 0.002308614 -0.0027087005 -0.0033920398
-0.0015327187 0.0024928784 0.0010294345 0.006777024 0.0008294453 0.012933626 -0.0006410579 -0.0065574353
0.00073322444 -0.0002120017 0.0021154536 -0.0018160122 0.00028002495 0.0025763693 0.0 -4.983281e-07
3.8492548e-05 -0.007646898 -0.000959638 -0.0032369834 0.0008747616 4.3255486e-06 0.007141636 -0.004979851
0.0 -0.00231165 -0.004051013 0.0059167636 0.0024723583 0.00175228 -0.0022717747 0.000350264
-0.0022558973 0.009285718 -0.002900017 -0.0052485317 -0.0031721976 0.008710098 0.0032510685 0.006401406
0.0 -0.0010381821 0.0 -0.0017515413 -0.0029500073 -0.0012451313 0.008565971 -0.0073884507
0.003099098 -0.00066572626 -0.0035262785 -0.006351895 -0.00043572285 -0.0012322661 0.0022968322 0.0025527617
0.00071513286 0.0032928267 -0.0046334644 0.014462814 0.0007619989 0.00040178536 -0.003467391 0.0
-0.0027662925 0.002684768 7.739329e-07 0.0025092226 -0.0048978194 0.0028159216 0.004442351 0.0011720577
-0.00010788352 -0.00071503635 4.429442e-06 0.0034550584 -0.005836841 0.008368524 -5.929618e-07 0.0047395295
0.006995561 0.005715629 -0.0031261672 0.0004141103 -5.213584e-05 0.0 0.005863096 0.0020743986
-0.0011435989 -0.0021821645 -0.0037836866 0.0 0.0036553878 0.002237536 -0.0051275697 -0.0035673878
-0.003071185 -0.00058186013 0.003531637 -0.002172151 -0.0060149133 0.0027311118 0.00035606106 -0.0028979576
-0.0026811352 0.0050958474 8.2023025e-06 0.0 0.0 -0.0018422364 0.0038967594 -5.253149e-05
-0.013996111 0.0005601282 0.0 0.004463653 0.005028609 0.008131475 0.0026601162 -0.00802723
0.004144753 0.0 0.005098569 -8.825803e-05 0.0 -0.0008865674 0.0028532802 0.0048735794
0.0024789164 0.0014519516 4.652163e-05 -0.0067448835 -0.003888137 -0.0107504 -5.4297807e-06 0.0011312806
0.003888757 0.0024450705 0.0066987383 -0.006061958 -0.000839192 -0.0027402807 0.0 -3.109708e-06
-9.195185e-06 0.011073398 0.0023058266 -0.0022408867 -0.006016872 0.00010693392 0.0020347885 -0.00017963014
0.0 0.006637124 -0.0019120172 -0.00028015077 -0.0020410793 -0.0010161074 0.0038855595 0.0020990476
-0.00347343 -0.0030633505 -0.0018012087 0.004067161 0.0013551434 0.0021036216 -0.008647361 -0.003946538
0.0 7.395369e-05 0.0 0.0011900745 0.0031762836 0.00011795433 -0.011774724 0.0111518875
-0.004168608 0.0031285859 0.005376873 -0.005009398 0.00075979857 -3.6736954e-05 -0.0017869284 -9.742846e-05
00000000: d5bc 023b 75c4 81bb aba5 453b 2f0a dfbb
00000010: b9cc 763a 9dbb 803a 773b 633a 0000 0000
00000020: 1da3 d5ba 1bb9 bab9 df37 4e35 d7a4 963b
00000030: 6bbd d93b 2d8c 12ba 9ba4 b5bb fbaa 40bc
00000040: 091f 4a3a e983 95ba ed77 d736 d786 edba
00000050: 5df8 dd3b 0664 b2bb 0000 0000 b13d 87bb
00000060: 9e8a d1ba 1438 a0ba 4f07 4eba ea65 01b9
00000070: 3563 e7b9 0000 0000 7da9 a03a 19cb 1ebb
00000080: faf4 123b 11de 913a 042f 193c 0000 0000
00000090: eb1e 81bb 5ed1 8e36 7814 ccba 50c8 1a3b
000000a0: 9bd6 393b 3904 c63a f769 e4bb 6e27 9c39
000000b0: 020a a1b9 e2c6 023b 5005 59b8 bfbb ab3b
000000c0: 5aca 353b 01e4 a2ba b8cf 73ba c8f5 3339
000000d0: 0000 0000 3b53 02bb e8a3 0cbb 30a4 20bb
000000e0: 1973 a93b a8c5 923a 0000 0000 6aaf 1c3b
000000f0: 9aea fc3a fcd6 4dba 485f bf3b de4e 2b3b
00000100: 615f 7636 c574 2bb5 35bc 98bb ebf6 e139
00000110: 0000 0000 1e4c 173b 7484 31bb fc4c 5ebb
00000120: 81e5 c8ba 8f5f 233b 17ee 863a cc11 de3b
00000130: 226f 593a 8fe7 533c ab0c 28ba c1df d6bb
00000140: dc35 403a c64c 5eb9 6ca3 0a3b 4207 eeba
00000150: 50d0 9239 4ed8 283b 0000 0000 d9c4 05b5
00000160: 0f73 2138 d492 fabb 3790 7bba 9223 54bb
00000170: 4250 653a 2e24 9136 6304 ea3b 052e a3bb
00000180: 0000 0000 0d7f 17bb 5cbe 84bb 69e1 c13b
00000190: 4a07 223b c3ac e53a 0ee2 14bb a3a3 b739
000001a0: add7 13bb 2023 183c 360e 3ebb e0fb abbb
000001b0: a5e4 4fbb cdb4 0e3c e10f 553b e3c2 d13b
000001c0: 0000 0000 9c13 88ba 0000 0000 f993 e5ba
000001d0: e954 41bb ac33 a3ba 4958 0c3c d11a f2bb
000001e0: 3d1a 4b3b 2284 2eba 2319 67bb 8f23 d0bb
000001f0: bb71 e4b9 fd83 a1ba 7386 163b 3c4c 273b
00000200: c177 3b3a 77cc 573b 51d4 97bb 70f5 6c3c
00000210: e1c0 473a b8a6 d239 2b3d 63bb 0000 0000
00000220: b04a 35bb eff2 2f3b 44c0 4f35 c571 243b
00000230: e37d a0bb 538b 383b 2491 913b bb9f 993a
00000240: 863f e2b8 4771 3bba 9ea0 9436 436e 623b
00000250: f942 bfbb 221c 093c 062c 1fb5 0e4e 9b3b
00000260: 053b e53b 2c4a bb3b 62e0 4cbb f21c d939
00000270: 6fac 5ab8 0000 0000 371f c03b a2f2 073b
00000280: d0e4 95ba a502 0fbb baf7 77bb 0000 0000
00000290: 3b8f 6f3b a0a3 123b 2c05 a8bb d6ca 69bb
000002a0: ef45 49bb f987 18ba 0973 673b a65a 0ebb
000002b0: c018 c5bb 74fc 323b b5ad ba39 a9eb 3dbb
000002c0: fcb5 2fbb 11fb a63b 9f9c 0937 0000 0000
000002d0: 0000 0000 3277 f1ba c660 7f3b 4255 5cb8
000002e0: f24f 65bc 91d5 123a 0000 0000 d643 923b
000002f0: 08c7 a43b e139 053c 5855 2e3b a584 03bc
00000300: b5d0 873b 0000 0000 e611 a73b 2b17 b9b8
00000310: 0000 0000 8868 68ba 19fe 3a3b 8cb2 9f3b
00000320: 5175 223b 694f be3a 3820 4338 2f04 ddbb
00000330: 1dd0 7ebb 7222 30bc 7631 b6b6 7a47 943a
00000340: 84da 7e3b 7a3d 203b 1781 db3b 64a3 c6bb
00000350: 39fd 5bba 4896 33bb 0000 0000 60b0 50b6
00000360: 0545 1ab7 336d 353c 5a1d 173b d7db 12bb
00000370: 2e29 c5bb b641 e038 165a 053b 195b 3cb9
00000380: 0000 0000 3b7c d93b a79c faba 33e1 92b9
00000390: a1c3 05bb e82e 85ba dfa4 7e3b 2d90 093b
000003a0: 7ca2 63bb 7ec2 48bb 8916 ecba d245 853b
000003b0: 119f b13a eadc 093b a9ad 0dbc f651 81bb
000003c0: 0000 0000 9617 9b38 0000 0000 46fc 9b3a
000003d0: 3229 503b 405e f738 c6ea 40bc 68b6 363c
000003e0: d298 88bb f608 4d3b 7b30 b03b e025 a4bb
000003f0: 382d 473a 0116 1ab8 5e37 eaba 8252 ccb8

head.2.bias f4 [36]
-0.008871927 0.008291894 0.00055980607 -0.023835765 -0.026336115 -0.055951726 -0.012487109 0.0006829122
0.018145418 -0.0059716343 0.0029787156 -0.00019242076 -0.0029709318 -0.002398127 -0.0017972895 0.010582272
-0.021980109 -0.016174033 -0.017217897 0.016592106 -0.020300716 0.024553267 -0.0012066871 -0.039999478
-0.0023639437 -0.019414555 0.02530851 0.047976512 -0.0021283166 -0.0042031254 0.003906272 -0.0007218513
-0.033128396 0.0073832846 -0.018997306 0.01783169
00000000: 8f5b 11bc b9da 073c f3bf 123a 3943 c3bc
00000010: d6be d7bc a32d 65bd bb96 4cbc 7605 333a
00000020: b3a5 943c b3ad c3bb 8e36 433b 8ec4 49b9
00000030: f7b3 42bb e529 1dbb 0793 ebba 4461 2d3c
00000040: a10f b4bc 687f 84bc 8c0c 8dbc 2bec 873c
00000050: b04d a6bc ef23 c93c b329 9eba 7ed6 23bd
00000060: 65ec 1abb 460b 9fbc cb53 cf3c 0583 443d
00000070: 3a7b 0bbb 5fba 89bb 2f00 803b 9f3a 3dba
00000080: a4b1 07bd 7bef f13b 3da0 9bbc c413 923c
