apps/ai/skpt/agent_CNN2_0_qnet.pt (torch, 212595 bytes, 12 tensors)

board_tower.0.weight f4 [16, 2, 3, 3]
000000 95 f4 c3 bd 62 b1 dd 3d ab 2c 22 be 2e 24 0f 3e
       -0.09568135 0.10824849 -0.15837352 0.13978645
000010 f3 b9 87 be 3f 15 19 3e 52 eb 56 3e 82 13 26 3e
       -0.26509055 0.14949511 0.20988205 0.16218379
000020 9f 3d 71 3e a9 06 0c 3b 85 80 e9 bd e6 f1 b2 3d
       0.23558663 0.0021366274 -0.11401466 0.08737545
000030 54 a0 d4 3d 9e 31 a8 bd b5 ec 17 be bb 3b fc bc
       0.10382143 -0.08212589 -0.1483639 -0.0307902
000040 a2 1a 09 be e6 99 60 be 01 df 31 3e 1b 25 c8 bd
       -0.13389066 -0.21933708 0.17370225 -0.09772702
000050 d9 38 1f 3e 1e 45 72 3e 43 13 b6 3e 4b cb c3 3d
       0.1554903 0.23659179 0.3556157 0.095602594
000060 b7 f3 6d 3e 03 47 09 3e bf 95 34 be 1a f5 c4 bb
       0.23237501 0.13405995 -0.17635249 -0.0060106637
000070 4a 9b 90 3d a0 5b 46 3e 96 bf 0a bd ee 60 70 3e
       0.07060869 0.1937089 -0.033874117 0.23474476
000080 3c 6a 35 3c f5 7d 05 3e af db 36 be 11 7a ab 3d
       0.0110726915 0.1303633 -0.1785724 0.08372892
000090 ec 71 5a be 6e c3 44 bd 37 ed 73 be ad 69 6a 3e
       -0.2133252 -0.04803794 -0.23820959 0.22891875
0000a0 a2 f6 d0 3c 20 0e 26 be 2e 8c 16 3e b5 95 ae 3d
       0.025508229 -0.16216326 0.14701912 0.08524648
0000b0 c3 5b 80 be 49 44 23 be 2d 6c 39 3e 5e dc 3a bd
       -0.2507001 -0.15944017 0.18107672 -0.045620315
0000c0 5b 8a 90 3e 9e de c2 bd 38 34 20 3e 73 45 3a 3e
       0.28230557 -0.09515117 0.1564492 0.18190555
0000d0 0b 8f c1 39 38 38 84 3d 23 d1 c2 3d d9 82 3c be
       0.00036918404 0.064560354 0.09512546 -0.1840929
0000e0 59 56 47 be 5a 2a cb 3a 0c f9 b2 bc d8 33 3e be
       -0.19466533 0.0015500293 -0.02184727 -0.18574464
0000f0 08 18 05 be a8 eb 73 3e c1 86 e0 bb 66 3e 0f be
       -0.12997448 0.23820364 -0.0068520014 -0.13988647
000100 fb dd 13 be d2 b1 d4 bc 4f 96 b0 bd 09 2f ca 3d
       -0.14440148 -0.025963698 -0.08622419 0.098722525
000110 58 8a ce bd 1f fd 3f be 4b 2c 4d be d1 36 4f bd
       -0.10084981 -0.18748902 -0.20036428 -0.050589386
000120 67 18 ed 3d d2 76 3f 3e 9f 1d b8 3d 60 f5 8c 3e
       0.1157692 0.1869767 0.08990025 0.27530956
000130 08 a7 d3 3e 1b 81 e1 3c 85 f5 34 bd 2d df 6d 3c
       0.41338372 0.027527383 -0.04417946 0.014518541
000140 d9 bd fd bc 82 ff 9a be f7 1f a0 be 6d 95 4e be
       -0.030974315 -0.30273062 -0.31274387 -0.20174189
000150 6a 24 7c be 7d 80 8a be 35 08 41 bd 57 c8 7b be
       -0.24623266 -0.27051154 -0.047126967 -0.24588142
000160 13 f5 3e be 40 75 d9 bc 6a 79 50 be 31 ba e7 3d
       -0.18648176 -0.026545167 -0.20358816 0.1131481
000170 e5 53 6a be e8 f0 72 bd 3e 54 8e 3e 4c 1f 25 3e
       -0.22883566 -0.059311777 0.27798647 0.1612522
000180 27 a7 92 3b 6f 38 27 be ef 08 0f bd 68 d8 6c 3e
       0.0044754925 -0.16330121 -0.03492063 0.23129427
000190 3b e7 2b 3e 0c 37 59 be d5 ae 4a be 02 17 a0 3b
       0.16787426 -0.21212405 -0.19793256 0.0048855552
0001a0 f3 cf cb bd dc 9d dc 3d 35 ba c4 bb 8a 20 27 3e
       -0.099517725 0.10772297 -0.006003643 0.16321006
0001b0 dd 3a 4c be 12 51 b2 bd 10 59 b3 3d 39 f7 97 3d
       -0.1994433 -0.08706869 0.08757222 0.07420201
0001c0 39 82 89 be da f3 e2 3c 75 f9 42 3e 39 35 57 3e
       -0.26857165 0.027704168 0.19040473 0.21016397
0001d0 d6 15 07 be 81 85 3e 3e d2 b3 b7 3d e7 49 88 bd
       -0.13191923 0.18605615 0.08969845 -0.06654721
0001e0 75 c0 4e 3c 45 79 f4 3d f2 f4 c9 bd 50 21 3c be
       0.0126191275 0.11937193 -0.09861173 -0.18372083
0001f0 05 bc 2f be ba ec 2f bd a3 33 20 be 2d 9a bc bc
       -0.17161568 -0.04295037 -0.15644698 -0.023022735
000200 09 4e 64 be ca 31 e6 bd b8 7a b9 bd a7 1f 8e 3e
       -0.22295393 -0.11239965 -0.0905661 0.27758524
000210 45 82 6a 3e de 29 a8 bc 18 a4 14 3e 2b 59 19 be
       0.22901256 -0.020527776 0.14515722 -0.14975421
000220 69 27 59 3e ef 7b 71 be 7b bd 41 bd 52 82 01 3e
       0.2120644 -0.23582433 -0.047299843 0.1264737
000230 26 9e 25 3c 08 e5 91 bc 25 b8 e3 bd 30 83 71 3e
       0.010108506 -0.017809406 -0.11119107 0.235852
000240 21 43 cb bd e8 0c 0a be 95 b2 8c 3e 41 66 ab 3d
       -0.09924913 -0.13481486 0.27479997 0.08369113
000250 a2 62 fe bd eb 84 8d 3e 25 e0 e3 3d 0c a9 26 be
       -0.124211565 0.2764047 0.111267366 -0.16275424
000260 ae 6a f1 3d bf fc a7 3d cc 18 63 3e 68 62 9d 3e
       0.11787926 0.08202504 0.22177428 0.3073914
000270 bf b1 6d 3e f2 56 41 be c2 ca af 3e 62 c2 58 bd
       0.23212336 -0.18880823 0.3433438 -0.052919753
000280 b4 c1 32 3d a8 4e 3c 3e 31 45 04 bd 03 09 05 be
       0.04364176 0.1838938 -0.03229255 -0.12991719
000290 bc e7 54 3e e4 06 59 be 36 43 c8 bc 51 a9 39 be
       0.20791525 -0.21194035 -0.024446111 -0.18130995
0002a0 5d 89 06 3e 25 1b b9 3d 88 53 3c 3e 8d 04 0a be
       0.13138337 0.090383805 0.1839124 -0.13478298
0002b0 b4 8a 92 3e 3a f2 9a 3e ac 3a ab 3d 8a 34 77 3d
       0.28621447 0.3026293 0.083608 0.06035284
0002c0 93 58 b0 3e ce b7 8d bd 82 84 9a 3e e7 06 81 3e
       0.34442577 -0.069198236 0.3017922 0.2520058
0002d0 1b a3 f6 bc d6 77 09 be ba 5b 51 3e 0a b0 8d bd
       -0.030107072 -0.1342462 0.20445147 -0.069183424
0002e0 18 81 7c 3e b9 be ac 3e cb 1c 72 3e 85 03 52 bd
       0.2465862 0.3373926 0.23643796 -0.051272888
0002f0 3a b9 3e be 7a 02 55 bd 76 f1 d6 3d 42 e2 87 be
       -0.18625346 -0.052004315 0.10495274 -0.2653981
000300 73 32 1f be ed b9 0a 3b 3e bc 21 be 0b f2 84 bd
       -0.15546589 0.002116795 -0.15794465 -0.064914785
000310 be 9d c2 3d 19 46 5c bc 78 09 79 bd 04 24 d1 bd
       0.09502743 -0.013444447 -0.060800046 -0.102119476
000320 17 21 5a 3d 95 4a 6a be 23 20 40 be 67 18 e3 3d
       0.053254213 -0.22880013 -0.18762259 0.11088639
000330 8f 08 35 bd 7e 11 91 bd 46 a4 1a 3e a6 53 ad bc
       -0.044197615 -0.070834145 0.15101728 -0.02115805
000340 5f 0d ae bb 65 01 56 be 9a a5 d8 bd 76 09 c2 bd
       -0.0053116526 -0.2089897 -0.10578461 -0.09474461
000350 f9 64 47 be 9c ec 22 3e 1f 52 d4 bd 0a 82 4c be
       -0.19472112 0.15910572 -0.10367226 -0.19971481
000360 06 36 5d 3d a8 f3 a2 3e cd fb 70 3e fd 0f 4f 3d
       0.0540066 0.3182652 0.23533554 0.050552357
000370 5d c4 91 bd 81 22 d0 3d 73 1b 8b 3e 12 a4 ac 3b
       -0.071175314 0.10162831 0.2716938 0.005268582
000380 17 ff 01 3e 46 48 61 bc 30 74 3a 3e f5 a3 26 be
       0.12694965 -0.0137501415 0.18208385 -0.16273482
000390 73 a4 9d bd f8 9e 5c be ad e5 31 3e f3 b5 91 bd
       -0.07697382 -0.21545017 0.1737277 -0.07114782
0003a0 88 08 8b be a7 b8 5a be 59 d9 32 bd f7 1c ed bd
       -0.27154946 -0.21359502 -0.04366431 -0.1157779
0003b0 26 c9 f0 bc 9a ae 29 3e dc dd 10 be bf 88 02 be
       -0.02939279 0.16570511 -0.14147133 -0.12747477
0003c0 39 c3 52 be 4f 8d 35 3e 19 e0 40 be 12 38 65 3d
       -0.20582284 0.17729686 -0.18835486 0.055961676
0003d0 d3 01 fa bd 2e 0b 92 bd 9d 0c 44 3e ea cc 3e 3e
       -0.12207379 -0.071310386 0.19145437 0.18632856
0003e0 14 59 65 be 72 72 01 be f3 49 84 bd 96 7a 1c bd
       -0.22397262 -0.12641314 -0.06459417 -0.038202845
0003f0 d4 cf 3a 3e 86 89 da 3c fd e3 16 be df fd a9 3d
       0.18243343 0.026676904 -0.14735408 0.08300375

board_tower.0.bias f4 [16]
000000 d2 2d 4b 3e a9 b5 03 be 9c ad e7 3d 77 a4 27 be
       0.19841698 -0.12862267 0.1131241 -0.16371332
000010 7f 99 b1 bd 44 43 82 3e 33 58 f9 bc d4 1f 8b 3e
       -0.08671855 0.25441945 -0.030437564 0.2717272
000020 15 e8 35 3e 13 b9 a3 3e ba 2c 9b be 4e 8e a8 bd
       0.17764314 0.31977138 -0.3030756 -0.082302675
000030 e6 ef 3d 3d 10 68 73 3e 05 44 62 3e 21 9d 62 3e
       0.046371363 0.23770165 0.2209626 0.22130252

board_tower.2.weight f4 [32, 16, 3, 3]
000000 96 8c 1e 3b 90 f7 8e 3d 89 4e 8b 3d ab 83 a2 3c
       0.0024192682 0.069808125 0.06802089 0.019838175
000010 6c 5f 72 bc bb 50 35 3d 4b 12 0e 3d ae 77 34 3d
       -0.014793258 0.044266444 0.034685414 0.044059448
000020 2f ab 8f bd 15 1d 00 bd 4f de 70 3c 90 24 76 bd
       -0.070150726 -0.031277735 0.01470144 -0.060093462
000030 f6 32 36 3d 0a c8 ea 3c 70 a9 2b 3c 98 bd 20 3d
       0.044482194 0.02865984 0.010477409 0.03924331
000040 47 46 8e 3c de 2e 68 bb 05 10 35 bd 53 49 82 3c
       0.017367495 -0.0035428326 -0.04420473 0.015904104
000050 17 05 c2 3d 1b db dd 3c 31 ba a6 bd 38 7e 5a bc
       0.09473627 0.027082017 -0.08140982 -0.013335757
000060 da 1c bc 3d f6 06 a8 3c 1b f0 7b bd 6a f6 3f 3d
       0.091851905 0.020511132 -0.06150828 0.04686586
000070 7b 48 9b 3d 22 1d bc 3d 18 c4 84 bc aa a0 94 3d
       0.07582184 0.09185244 -0.016206786 0.07257207
000080 93 82 1e 3d 74 74 6c bc 9c cd 67 bd 98 1c 64 bc
       0.038698744 -0.014432061 -0.05659257 -0.013922833
000090 48 78 b0 3d 14 39 d9 3d 9a 6d 25 bc fb 3b c8 3d
       0.08616692 0.1060659 -0.010096932 0.09777065
0000a0 db d4 b8 bb 2f 57 0c bd 50 ef a2 3d 6a 4f 04 3d
       -0.0056406087 -0.034262832 0.079558015 0.032302298
0000b0 8f 35 5c 3d df 36 74 bc d9 2d 5d bd 86 c1 2f 3d
       0.053762015 -0.01490566 -0.0539988 0.042909168
0000c0 fc e5 a5 3d 95 3d 3c bd a8 31 be bd f7 6a 39 bb
       0.08100507 -0.045957167 -0.09286815 -0.0028292516
0000d0 fd b9 52 3d 43 c7 75 3d a5 1a 90 3d e6 0d 1c bd
       0.051446903 0.060004484 0.07036332 -0.038099192
0000e0 f1 d4 94 3c c9 fd 8f 3c 4f 57 a8 3d 87 ab 70 3d
       0.018167945 0.017577069 0.08219778 0.05875733
0000f0 71 28 ab 3d 67 9a 22 3d 11 c3 a5 bd 49 57 81 3d
       0.08357323 0.03969803 -0.080938466 0.063154764
000100 30 4a 80 3b 98 e5 91 3c 88 40 e4 ba 84 24 04 3d
       0.003915094 0.017809674 -0.0017414251 0.032261387
000110 52 37 89 bd 5e f9 4a bc aa a9 59 3d a8 d6 4a bd
       -0.06700005 -0.012388555 0.05314032 -0.04952112
000120 f7 55 c4 3d 8d 0a 94 3c fc 68 4c bd 7e e1 7b bb
       0.09586709 0.018071437 -0.04990481 -0.0038433964
000130 bf f4 a9 bd 3f 24 b2 bd 03 6a 1c bd 9d 37 d1 3d
       -0.08298635 -0.0869832 -0.03818704 0.102156855
000140 b2 ec d3 bd fe 83 ad bd 97 7c e2 bd d3 e8 a3 bc
       -0.103478804 -0.08472441 -0.1105892 -0.02000848
000150 76 ba 3e 3d 60 98 95 3d e7 ba 9a bd e9 41 0c 3d
       0.04656454 0.07304454 -0.0755518 0.034242544
000160 0f a0 06 3d 1d f2 7b ba b7 e5 c5 3d ed ab b3 3d
       0.032867488 -0.0009610968 0.09662955 0.087730266
000170 08 44 1d 3d cc 29 a9 3d af b5 f1 3c 71 14 21 3d
       0.038394958 0.08259925 0.029505579 0.039326135
000180 45 29 47 3d 40 92 ca 3c 5d 17 3f 39 97 16 57 bc
       0.048623342 0.02472794 0.00018223883 -0.013127944
000190 75 7f 35 3d f8 41 ab bd fe fe 29 bd 48 04 95 bc
       0.044311006 -0.08362192 -0.041502945 -0.018190518
0001a0 df 33 cc bc 97 28 61 bd a3 71 fc bb 3c 7d 48 bd
       -0.024927078 -0.05497035 -0.0077039762 -0.048947558
0001b0 fe 23 4e 3c 28 fd 9e bb c6 6d c0 3c 88 9a 9b 3d
       0.012581823 -0.004851956 0.023489844 0.07597834
0001c0 db 53 00 3e 72 cd 43 3d 6d db 30 bd 57 f0 4c bd
       0.12531988 0.04780335 -0.04317801 -0.050033893
0001d0 e6 d0 e7 3c 9d e1 d3 bc 77 5f 55 bd ba 4c 45 3c
       0.028297853 -0.025864417 -0.052092995 0.012042219
0001e0 46 10 65 3d 92 7b 70 bd 04 6f 58 3d ac c5 b0 bb
       0.055923723 -0.058711596 0.052840248 -0.005394658
0001f0 90 3f 11 bd 8a a4 60 3d ee de 54 bb 49 bf 91 3d
       -0.03546101 0.054844417 -0.003248151 0.07116563
000200 cf 5d 90 3c eb f2 aa 3c 2e 10 ba 3b 1f e2 70 3d
       0.017622856 0.020867785 0.0056781983 0.058809396
000210 ee 0a 85 bd 89 24 8c 3a 5c a9 81 bd 5d 29 2e bd
       -0.06496225 0.0010692041 -0.06331131 -0.042519916
000220 86 cc 64 bd c1 31 a8 bd 4c 1b 55 bd a8 c0 9a 3d
       -0.05585911 -0.08212615 -0.052027985 0.075562775
000230 ae b2 94 bc 22 d4 51 bd 9b 9d 0f 3d 7e 3c a1 3c
       -0.018151607 -0.051227696 0.035062414 0.019682165
000240 ff f5 cc 3c 5f 50 96 bd 3c 40 63 bd e7 94 97 bd
       0.025019644 -0.07339548 -0.05548118 -0.07401448
000250 11 1b 63 bc 08 c7 6f 3c 8a ec aa 3d 33 02 5c 3c
       -0.013861434 0.014634855 0.083458975 0.013428259
000260 47 82 40 bd 16 e1 62 3d de 58 2b bd 97 e0 9c bd
       -0.046999242 0.05539044 -0.041832797 -0.076600246
000270 71 53 53 3d 5b 6d 5b 3d fe a4 f2 bc bc 4a 49 bd
       0.051593248 0.053571086 -0.02961969 -0.049143538
000280 59 b0 89 bd 85 e2 18 3d 13 a9 fa bb ee ac 6f 3c
       -0.06723089 0.0373254 -0.0076495497 0.014628632
000290 ef bf 8a 3d de 38 00 3d 44 3f 3b bd 5e 6a 5e 3d
       0.0677489 0.031304233 -0.04571463 0.05430066
0002a0 b4 9e 11 3d 4f c5 9f 3d 27 3e af bb fc 36 83 3d
       0.03555174 0.078013055 -0.0053479853 0.06406972
0002b0 9c 66 a0 bc 2e d1 98 bd da f4 5e bd 56 8b c1 3c
       -0.019580178 -0.07461773 -0.054432727 0.02362601
0002c0 0e 32 10 3d a5 e9 04 bd a4 91 ee 3c ba b3 f5 bc
       0.035203986 -0.032449383 0.029122181 -0.029992927
0002d0 18 5d 03 3c 68 ab 22 bc d2 57 70 bd cf a7 3b bd
       0.008017801 -0.009928562 -0.058677502 -0.04581433
0002e0 fe b2 a4 bd 5f 68 9f 3c 88 e0 f5 3c e0 2a bf bc
       -0.080419526 0.019458948 0.030014291 -0.023335874
0002f0 77 9f 27 bd 5b bd 6c bd ab be 49 bd fe 83 4c 3d
       -0.040923562 -0.05779777 -0.0492541 0.049930565
000300 92 14 27 bc 16 b7 b2 3a b9 a9 38 3d 1e 70 a5 bd
       -0.010197775 0.0013634886 0.045083735 -0.08078025
000310 28 80 dd bc b3 08 92 bd d6 34 ab 3d 31 40 41 3d
       -0.027038649 -0.071305655 0.08359687 0.04718036
000320 50 ff 1e bc 05 b2 bb 3b 5e 0a a5 bd 72 ab 6e bd
       -0.009704426 0.0057280087 -0.08058618 -0.05826897
000330 08 1e 23 3d 51 08 d6 bc 6c 91 0f 3d a5 33 66 bd
       0.039823562 -0.026127012 0.035050794 -0.056201596
000340 b1 e8 a2 3d 10 ea 59 bd cf bd 32 3d 30 8b 2e 3d
       0.079545386 -0.053201735 0.043638047 0.04261321
000350 85 14 1a bd d1 1d dc bc ea 27 ea bc 68 62 30 3d
       -0.037617225 -0.026869686 -0.028583486 0.043062598
000360 58 cd 68 3c c7 63 71 3d 18 b4 f6 3d e2 86 85 3d
       0.014209114 0.058933046 0.12046069 0.065198675
000370 30 79 bf 3d 8b 02 2d bd 7a b4 9b 3b a7 aa 06 bd
       0.093492866 -0.042238753 0.004751739 -0.03287759
000380 3b 73 cd bc 95 22 e2 bb 91 70 93 3d 08 20 3d 3d
       -0.02507936 -0.006901095 0.07199205 0.046173126
000390 3a 41 71 bc 46 62 17 3d b5 c8 56 3d 23 13 de bc
       -0.014725024 0.036958955 0.052437503 -0.027108734
0003a0 04 4e 1d 3d 00 df 67 3d 38 10 44 3c 53 32 7b bd
       0.03840448 0.056609154 0.0119667575 -0.06132729
0003b0 03 26 26 bd 3f 08 ce 3d c6 ee a8 bd a6 81 a7 bd
       -0.040563595 0.100601666 -0.082486674 -0.08179025
0003c0 0f 9c 37 bd f0 c8 fb 3c 47 2a 4f 3d aa ed 5b 3d
       -0.044826563 0.030735463 0.05057743 0.05369345
0003d0 74 ea 30 bd cf 49 70 bd 9a 3a f9 3c c5 67 a2 bd
       -0.043192342 -0.05866414 0.030423451 -0.07929949
0003e0 72 2f d5 bc a9 d2 10 3d 8b 8b 8a bd 82 de 3b 3c
       -0.0260236 0.03535715 -0.06764897 0.011466624
0003f0 20 8b b7 3c 2b 60 9a 3c de eb 9b 3d c1 2f 33 3d
       0.022405207 0.018844685 0.076133475 0.043746714

board_tower.2.bias f4 [32]
000000 17 91 78 3d e4 b8 cd 3d bc 81 3d 3e bc 34 81 bc
       0.060685243 0.10045031 0.18506521 -0.015772216
000010 42 44 f9 3d 6f 00 f8 3d d0 af 9a bd c7 8d 72 3c
       0.12171222 0.12109458 -0.07553065 0.01480431
000020 e6 62 8a 3d 17 1f 14 3e 1f ff 4c be 1e 8a 14 bc
       0.06757145 0.14464985 -0.20019196 -0.009066133
000030 06 cc b8 bb ac 15 b9 bb de de c0 3d 6a dc 7b 3d
       -0.005639556 -0.0056483354 0.094175085 0.0614895
000040 b6 17 bd 3d e7 0a d5 bd 93 25 ae bc 81 8e f3 3d
       0.09233038 -0.1040247 -0.021258151 0.11892415
000050 bf 49 ef ba f3 12 24 bd b8 0d 82 3d 2e 26 97 3d
       -0.0018256231 -0.040057134 0.06350273 0.07380329
000060 a6 5c 01 3e 70 25 f0 3d 4d 39 b1 bc b0 42 09 3e
       0.12632999 0.11725891 -0.021633768 0.13404346
000070 f0 2b 5e bd b5 5e 18 bd e8 47 5b 3d c2 77 02 3e
       -0.05424112 -0.037199695 0.053535372 0.12740996

hand_tower.0.weight f4 [32, 3]
000000 1a 71 59 be 7e 97 73 3e 11 bd a9 bd c0 40 b8 3e
       -0.21234551 0.23788258 -0.08288015 0.359869
000010 16 69 5a 3d 90 03 a2 be 46 d8 06 3f a0 37 f1 3d
       0.053322874 -0.31643343 0.5267376 0.11778188
000020 89 ce a0 bd e0 67 04 3d 00 13 ea 3b fa da 8a be
       -0.078518935 0.032325625 0.0071433783 -0.2712019
000030 1a 47 08 bf 80 61 3e bd 30 f3 8d 3d 7e 92 01 3f
       -0.5323349 -0.046479702 0.0693115 0.50614154
000040 37 3e 2d bd 3f c7 88 bd 38 94 9a be d1 ea 0d bf
       -0.04229566 -0.06678628 -0.30191207 -0.55436426
000050 20 61 02 3d 08 b3 80 3e e4 2f 04 be e0 7f 5a be
       0.031830907 0.2513659 -0.12908894 -0.21337843
000060 8c e7 d1 be 9a 13 0b bf 10 87 2c 3d b1 01 b3 be
       -0.4099697 -0.54326785 0.042120993 -0.34962228
000070 08 ff a0 3e d8 19 de 3e 00 ea cc 3e 4d 9d 8c be
       0.31444573 0.43379092 0.40022278 -0.2746376
000080 4e 91 60 bd 2b 27 87 be e7 5e b2 be c6 78 69 3e
       -0.054826073 -0.2639707 -0.3483803 0.22799978
000090 59 4c 0d bf c0 26 69 bc 70 6b 16 be 82 83 c0 3e
       -0.5519462 -0.01423043 -0.14689422 0.37600332
0000a0 82 ff fc 3e 4f e1 cb be c8 db a1 bd 90 f9 12 bd
       0.49413687 -0.39820334 -0.07903248 -0.035882533
0000b0 37 66 ad be 6b eb dd be 85 00 13 3f b5 2e ca be
       -0.33867046 -0.43343672 0.5742267 -0.3948876
0000c0 b8 5d 9b 3e 21 e3 68 be d0 48 03 3f c2 91 f5 be
       0.3034494 -0.22742893 0.5128298 -0.47962767
0000d0 3a 46 ef be 16 11 d8 be 66 f1 8f 3e 1e e2 41 bd
       -0.46733266 -0.42200536 0.2811386 -0.047334783
0000e0 18 09 3d be 9b 05 d8 be a0 96 9f 3e 26 ad 6c 3d
       -0.184605 -0.42191777 0.31169605 0.057782315
0000f0 fa 1c 85 bd 10 16 a9 be 14 63 d1 3e be 51 57 be
       -0.064996675 -0.33024645 0.40895903 -0.21027276
000100 ce 05 a2 3e f8 56 bc be a9 d2 d4 be 8d 5b c4 3e
       0.31645054 -0.36785102 -0.4156697 0.38351098
000110 15 0b fb 3e 99 2a 04 bf d8 7c df 3d 34 c2 c6 bd
       0.49031892 -0.516275 0.10912484 -0.0970501
000120 5c f0 a7 be 8c 9f d8 be 8a be e8 be 58 b6 92 3d
       -0.32800567 -0.42309225 -0.4545787 0.071636856
000130 18 6b fd 3e a7 79 f3 be 58 7a 15 3e 64 46 33 3e
       0.4949577 -0.4755375 0.14597452 0.1750732
000140 84 78 ed 3e 24 50 03 3f 0a ef 6a 3e 28 35 83 be
       0.4638101 0.5129416 0.22942749 -0.25626493
000150 d5 b1 7a 3e 5e 8b ae 3e d4 7c 84 be 92 99 dd 3e
       0.244819 0.34090704 -0.25876486 0.43281227
000160 1b 12 fd 3e 4e 59 bf 3d 94 b9 a8 be 0d 6c 94 be
       0.49427876 0.093432054 -0.32954085 -0.28988686
000170 58 69 12 3e 86 a9 00 bf 40 d8 8f 3c 64 25 ad be
       0.14297998 -0.5025867 0.01755917 -0.3381759

hand_tower.0.bias f4 [32]
000000 de 45 c6 3c fb 69 5c be 17 a8 82 be ba 69 05 bf
       0.024203237 -0.21524803 -0.25518867 -0.5211445
000010 7b 98 01 bf 34 da 6c be e2 be ed be 91 75 0e bf
       -0.5062329 -0.23130113 -0.46434695 -0.5564814
000020 ac d1 0b bf 45 05 3c be 21 f2 92 3e 48 68 e3 bd
       -0.5461681 -0.18361385 0.28700355 -0.111038744
000030 e8 35 ae 3e 12 30 57 be bd 73 c7 be 88 64 ff 3e
       0.34025502 -0.21014431 -0.3895549 0.49881387
000040 de af 9e 3c c0 08 30 3e f6 99 34 be 5e 4f de be
       0.01937097 0.17190838 -0.17636856 -0.43419927
000050 18 34 bf 3e 88 d5 55 3e 05 5f e3 3c 7c 5c 79 be
       0.37344432 0.20882237 0.02775527 -0.24351686
000060 fa 5f 8c 3e da 84 cb be 94 ad c3 3e 03 96 9d 3e
       0.27416974 -0.39749795 0.38218367 0.30778512
000070 cb 8b 08 bf f4 1f a3 be 78 a6 42 be 78 b0 09 bf
       -0.5333831 -0.31860316 -0.19008815 -0.53784895

hand_tower.2.weight f4 [32, 32]
000000 55 aa 27 3e 87 d9 dc bd 1c 09 81 3d df a3 31 be
       0.1637357 -0.107836775 0.063005656 -0.17347668
000010 e1 23 26 3e 10 b0 ae bd 7c 43 6f 3d 0b ac 01 be
       0.16224624 -0.08529675 0.058413967 -0.12663285
000020 56 82 dd 3d 3b 68 f2 bd 0a ee 2d be 76 a9 dc 3d
       0.10815875 -0.11836287 -0.16985336 0.107745096
000030 e0 0b 51 3c 6c cc 18 be 6a 63 f5 3d 29 15 84 bd
       0.012759179 -0.14921731 0.11981852 -0.064493485
000040 54 94 1a be 10 30 43 3c 68 f0 d2 3c d5 44 31 be
       -0.15095645 0.011913314 0.0257494 -0.17311414
000050 bb 21 04 3e 88 37 44 3d 5a c7 05 be 50 76 30 bd
       0.12903492 0.04790452 -0.13064328 -0.04308158
000060 00 e4 74 3a e0 34 89 bc 06 f1 a2 bd 94 58 3c bd
       0.0009341836 -0.016748846 -0.07956128 -0.045982912
000070 1c 24 34 3d 9f 84 09 be 78 1f 81 3c bc 3d 47 3d
       0.04397975 -0.13429497 0.015762076 0.04864286
000080 e0 f0 2e 3e 58 bd fb bd 29 a9 ef bd fa 73 e6 3d
       0.17084074 -0.12291974 -0.117021866 0.112525895
000090 2f 35 2e 3e e1 e7 22 be 71 aa c2 bd 08 8e 93 3c
       0.17012475 -0.15908767 -0.09505165 0.018012062
0000a0 6e a0 9a 3d 5f 5f 09 bd 7e 8c 88 3d 75 28 2b 3d
       0.07550131 -0.03353822 0.06667422 0.04178663
0000b0 14 92 48 bd 37 5b 8b 3d b2 80 ca 3d f8 58 32 3e
       -0.048967436 0.06804507 0.09887828 0.17416751
0000c0 55 9a 63 3d 9c 56 1a be 74 c7 4e 3d 9e 83 22 3e
       0.055567104 -0.15072101 0.050483182 0.1587052
0000d0 b7 be 00 3e b9 26 9a bd 5c 0b 7f 3d f2 a8 a3 3d
       0.12572752 -0.07526917 0.062266693 0.07991208
0000e0 fd 19 2d 3e 90 76 b5 3c 40 17 84 bd 12 47 13 be
       0.16904445 0.022151262 -0.06449747 -0.1438258
0000f0 cc 26 1b be 69 57 81 3d 5a c0 01 be 92 c3 6a bd
       -0.15151519 0.063155 -0.12671033 -0.057315417
000100 d6 75 cf 3d e1 9a 0c be 9d b4 d8 bd 6a 4a b5 3d
       0.10129897 -0.13730957 -0.10581324 0.08852084
000110 9e 52 26 be 76 13 25 be 5d 27 05 3e 4a 13 a2 bd
       -0.16242453 -0.16120705 0.13003297 -0.07913835
000120 1e 83 cb bd 20 fe 13 bd 93 28 2f be 90 7c 64 3d
       -0.09937118 -0.036131024 -0.17105322 0.055782855
000130 93 7d 0a 3e 88 36 81 bc 29 bf 16 3e cc 2d 16 be
       0.13524465 -0.015773073 0.1472136 -0.14665908
000140 35 98 33 3e bf 14 02 be 2c d3 2d 3d a0 f2 78 3c
       0.17538531 -0.12703227 0.042437717 0.015194565
000150 5c 82 f9 bd bd 6b 18 3e 51 4b 1d be 98 69 84 3c
       -0.12183067 0.14884849 -0.15360762 0.016163632
000160 ab 8b 15 be 02 a0 56 bd 20 06 51 3d cb 27 f9 bd
       -0.1460406 -0.05239869 0.051031232 -0.12165793
000170 24 5f 43 3d 76 f9 6b bd 29 2c 31 be c3 6a 1f be
       0.047698155 -0.05761095 -0.17302002 -0.1556807
000180 c7 29 14 be 88 2d 75 bd d8 40 00 3e c9 38 1f 3e
       -0.14469062 -0.059857875 0.12524736 0.15549006
000190 36 cf c3 3d 8d 9d 8d bd 99 74 1d be f1 a5 b0 bd
       0.09561007 -0.06914816 -0.1537651 -0.08625401
0001a0 68 e6 94 3d d5 f6 0b 3e 55 5c 19 be 2a 52 70 bd
       0.07270509 0.13668378 -0.14976628 -0.058672108
0001b0 ef 85 01 3e e1 61 a0 3c b2 c1 28 be 42 0f 2f 3e
       0.12648748 0.019577922 -0.16480139 0.17095664
0001c0 63 b9 cb 3b 10 c5 63 3d e0 24 1b 3d ef 73 14 be
       0.006217168 0.055607855 0.037876964 -0.1449735
0001d0 e8 4a 23 3d 1c 20 0f 3d fb 74 57 3e b4 09 44 3d
       0.039866358 0.03494273 0.21040718 0.047860816
0001e0 ee f0 cd bd 29 da 20 3e 0c fd 43 3e 50 96 32 bd
       -0.10055719 0.15708221 0.19139498 -0.04360038
0001f0 50 8b 13 be db 25 ab bd bf 3d 01 be 6d 3a e7 bd
       -0.14408612 -0.0835683 -0.1262121 -0.11290441
000200 dd 9a 2e 3e e0 c8 eb bb 24 4c 3b bd 84 eb 63 3d
       0.17051263 -0.007195577 -0.04572691 0.055644527
000210 ae 5c c8 3d 2b a9 bf bd 5a fc 0c be 50 8f c4 bc
       0.09783302 -0.09358438 -0.1376814 -0.023994118
000220 f8 85 09 be 46 de f4 3d b4 df 11 bd 8f 1a 1e be
       -0.13430011 0.11956458 -0.03561373 -0.15439819
000230 a9 9a 22 3e 0a 4b d3 bd de 3f 88 3d 05 9f 32 be
       0.1587931 -0.10317047 0.06652807 -0.17443474
000240 f8 bc bd 3c b4 28 47 3d 74 a5 68 3d d6 f6 e7 bd
       0.023161396 0.048622802 0.056798413 -0.11326377
000250 c0 e5 b8 bd 5f f7 10 be 46 5c cd bd c4 28 70 3d
       -0.09028196 -0.14156865 -0.100273654 0.058632627
000260 a6 e8 fc 3d 40 b5 48 bd 16 8e df bd 08 ad 27 bd
       0.12349062 -0.04900098 -0.109157726 -0.0409365
000270 40 26 e5 bb 58 d9 92 3c d3 0d ce bd 88 1e 42 3d
       -0.006993085 0.017925903 -0.100612305 0.047392398
000280 3d 73 23 3e fa a2 b8 bd 52 06 5d bd 6d 6a 09 3e
       0.15961929 -0.0901546 -0.053961106 0.13419504
000290 56 0f e2 3d e7 1e d4 ba 95 e5 a3 bd c3 f0 2d 3e
       0.11038081 -0.0016183526 -0.08002774 0.16986375
0002a0 be 06 ff 3d f1 ef bb 3d 06 cb 3a 3e ae 0b a5 bd
       0.12452458 0.091766246 0.1824151 -0.08058868
0002b0 a8 b3 7f bd 68 bc 10 3c 95 cc 0d 3e 7e f7 92 3d
       -0.062427193 0.008833982 0.13847573 0.07176112
0002c0 9d d5 32 3e 76 0a a3 3d fe 01 00 3e 36 f3 86 bd
       0.174643 0.0796098 0.1250076 -0.065893576
0002d0 fa b1 f9 bd 44 d7 ef bd f7 a6 44 3d 67 d9 93 bd
       -0.121921495 -0.117109805 0.048010793 -0.072192006
0002e0 60 bf 08 3d 10 24 3d 3d b7 83 0f 3e 0d 8a 10 be
       0.033385634 0.04617697 0.14015089 -0.14115162
0002f0 36 f7 da 3a a4 19 02 3c 3b 60 0f 3e 20 a6 8b 3d
       0.0016705755 0.0079406835 0.14001553 0.06818795
000300 82 c3 dd 3d 28 61 d3 bd 35 74 04 be 79 44 cf bd
       0.10828306 -0.103212655 -0.12934954 -0.10120482
000310 d2 27 fe bd 0a c6 ac 3d e0 ef 73 bc d6 82 ee 3d
       -0.12409939 0.084362105 -0.014888734 0.11646049
000320 78 f8 e0 bc 20 43 1e bd fc 9d 7e 3d a5 43 13 be
       -0.02746223 -0.038638234 0.062162384 -0.14381273
000330 3a ba 21 be f0 91 91 3c 36 4a e7 3d c0 85 fd 3b
       -0.15793696 0.017769784 0.112934515 0.0077368915
000340 cd d2 12 be 9a d7 f9 3d 08 3b 94 bc 90 c1 d0 bd
       -0.14338227 0.12199326 -0.018094555 -0.10193169
000350 c7 b6 cc bd 0e 28 69 bd 20 35 c3 bb b0 4c 55 3d
       -0.099957995 -0.056922965 -0.0059572607 0.052075088
000360 52 75 d7 bd 80 17 e1 3c 00 38 86 39 a2 e8 34 be
       -0.10520424 0.027477026 0.00025600195 -0.17666867
000370 b0 be 18 be 82 1f fd bd 80 25 9c 3a 80 94 67 bb
       -0.14916492 -0.12359525 0.0011913031 -0.0035336316
000380 5a 46 e1 bd 8d ca 15 be 82 c9 b8 bc e2 7f c2 bd
       -0.109997466 -0.14628048 -0.022557024 -0.09497048
000390 80 2d aa ba 15 13 87 bd 80 f8 bc bb b5 a2 13 3e
       -0.0012983531 -0.065954365 -0.005766928 0.14417537
0003a0 5c 74 06 bd af 31 f7 3d 5f 13 30 3e cc 40 28 be
       -0.032825813 0.12070023 0.1719489 -0.16430968
0003b0 6d 65 05 3e 27 2a fc bd 0e 90 5a bd c7 b4 59 bd
       0.13026972 -0.123127274 -0.053360038 -0.05315092
0003c0 ce 6a 0c be 58 2b d0 bd 22 07 57 bc 5f 9e 94 3d
       -0.13712618 -0.10164517 -0.013124259 0.072567694
0003d0 82 db 11 3d b8 04 8d bc 0a b9 77 3d 99 53 90 bd
       0.03560973 -0.017214164 0.0604792 -0.07047195
0003e0 e8 6d e6 bc 88 0e 5b 3d 67 fb 3e 3e e7 78 81 bc
       -0.02812858 0.053480655 0.1865059 -0.015804721
0003f0 c3 99 f3 bd d1 da 48 bd c2 0c 6e bd 9b 52 03 3e
       -0.11894562 -0.049036805 -0.058117636 0.1282448

hand_tower.2.bias f4 [32]
000000 40 8e ee bd 19 95 25 be 0c fd 58 3d b5 72 3c 3e
       -0.11648226 -0.16170157 0.0529757 0.18403132
000010 b0 77 62 bc a7 5e 76 bd 61 24 cf bd d1 91 c4 3d
       -0.013822481 -0.06014886 -0.101143606 0.09598125
000020 63 ce 1d 3e d9 50 31 be 22 3a 8c 3d 28 78 cd bc
       0.15410762 -0.17315997 0.068470255 -0.025081709
000030 54 9c 38 bd 0a ed 3c 3e 49 8c 40 3e 28 53 62 3d
       -0.04507096 0.18449798 0.18803515 0.055255085
000040 25 f5 00 3d b6 ce 54 bd 7d 47 16 3e 2d 0f cf bd
       0.031483788 -0.051954947 0.14675708 -0.101103164
000050 2f 6a 2d 3d a6 9e 1c be a6 3c 31 be c9 eb 9b 3d
       0.042337593 -0.15294895 -0.17308292 0.07613332
000060 94 48 80 bd 58 3f 03 3d ca b8 00 be d4 5a f0 bb
       -0.06263843 0.03204283 -0.12570491 -0.0073350463
000070 75 f0 4a 3e 39 45 19 be 1a 71 8d 3d fb 10 ce 3c
       0.1981829 -0.14967813 0.06906338 0.025154581

head.0.weight f4 [128, 320]
000000 7f 10 fa 3c 27 71 ff b9 2e c0 47 3d c5 cb 3d 3d
       0.030525444 -0.00048721695 0.04876726 0.046336908
000010 0e 4e 79 3b 47 28 49 bc 8e 06 a4 3c be 1c 10 3d
       0.003804091 -0.012277669 0.020022657 0.03518366
000020 08 f2 2e 3d 2c 2e 41 3d 2b 1e 0d bd 61 9d 0d bd
       0.042711288 0.047163174 -0.0344526 -0.034573916
000030 bb ec 40 bd c0 31 f4 3c e8 5a 7f 3b 63 ec 13 bd
       -0.047100764 0.029808879 0.0038964096 -0.036114108
000040 fe 2f b0 3c 98 87 05 3c e0 a1 4d 3d 4d c9 1d 3d
       0.02150726 0.008150004 0.050203204 0.038522054
000050 60 7b 0f 3d c3 26 24 3c d7 30 bb 3c b4 ac fa 3c
       0.03502977 0.010019007 0.022850437 0.03059993
000060 c9 26 de 39 70 1f 91 3c d1 aa 4d 3d 2e 63 83 bb
       0.00042372037 0.017715186 0.05021173 -0.004009626
000070 b1 67 dd bc 7b ef 9f bc e7 da 12 bc 2c 9f bc bb
       -0.027026983 -0.019523373 -0.008963323 -0.0057562795
000080 fd c1 ac bc 55 c2 22 bd 37 c5 dd bc e9 bd 16 bb
       -0.021088595 -0.03973611 -0.027071578 -0.002300138
000090 22 f8 14 bd 3e 61 18 3c 88 3f ce 3c 94 7e 68 3c
       -0.03636945 0.009300528 0.025176778 0.014190335
0000a0 c4 7e 25 3d 41 d2 af 3c c0 5b 02 3c 50 e9 09 bd
       0.040404096 0.021462562 0.007956445 -0.03366977
0000b0 e9 65 36 3d 6d ee 34 3d 31 70 b4 bc 9c df d2 3c
       0.044530783 0.044172693 -0.022026153 0.02574139
0000c0 29 ce 84 b9 a4 9b 2e 3d 69 b6 dc bc 25 8f 1d bd
       -0.00025330603 0.0426289 -0.026942449 -0.03846659
0000d0 56 21 4e bd b5 84 da bc b1 3a d6 bc 0d 5a 3e bd
       -0.05032476 -0.026674608 -0.026151033 -0.046472598
0000e0 8e 30 29 3d 19 df b0 3c 46 d7 57 bc ad 85 cb bc
       0.04130607 0.021590756 -0.013173884 -0.024844015
0000f0 41 4c 1f bd d7 60 06 3d 29 e9 a4 bc d2 04 a9 3c
       -0.03889108 0.032807197 -0.02013071 0.020632181
000100 12 27 a7 3a 83 8d 14 bb 42 cb 62 bd 14 d1 0b bd
       0.0012752733 -0.0022667355 -0.055369623 -0.03413494
000110 a4 3c fe bc fa 0c ae bc 38 35 16 bd 49 cf 34 bc
       -0.031034775 -0.021246422 -0.036671847 -0.011035749
000120 e8 87 4e bb fe f4 5a bd 9d 18 25 3c 27 a5 33 bc
       -0.0031514112 -0.0534563 0.010076669 -0.010964668
000130 cc d1 3c bd 89 1a 18 bd 35 79 4e 3d 0b 3d 9f bb
       -0.046098515 -0.03713468 0.05040856 -0.004859572
000140 95 24 51 bc 70 d4 77 bc fa 48 15 bd c8 a0 e2 bc
       -0.0127650695 -0.015126333 -0.03644655 -0.027664557
000150 12 72 4d bd e0 4a e6 3c 17 63 52 bd 53 92 b5 bc
       -0.050157614 0.028111875 -0.05136403 -0.0221645
000160 b8 b4 51 3a 3e 96 53 3d ab c2 00 3d 45 78 fe bc
       0.00079996465 0.051656954 0.03143565 -0.031063208
000170 22 3a 06 bd e0 e1 c3 3a e5 91 de bc 61 63 f1 3c
       -0.032770284 0.0014944635 -0.027169177 0.029466333
000180 0f e0 04 bd 04 41 f3 bc bb e6 ac bb 3d c4 09 bd
       -0.03244024 -0.029694088 -0.0052765287 -0.033634413
000190 0f c0 8e 3c 6e 07 e5 3c 1f 73 77 3c 26 f6 fb 3c
       0.017425565 0.027957644 0.015103131 0.030757021
0001a0 b1 fa 3c 3d 4c e5 00 bd 36 c7 22 bd e2 34 c2 39
       0.046137515 -0.031468675 -0.039740764 0.00037041964
0001b0 42 c2 3b bc 94 d0 44 bc 19 f0 47 bd 4b 95 3d 3d
       -0.011459889 -0.0120126195 -0.04881296 0.046284955
0001c0 45 a8 1a 3d 2b 8b 7f 3c 64 ea 55 bd bd 3a d2 3b
       0.03775813 0.015597145 -0.052225485 0.0064156936
0001d0 5a a9 11 bc 7b 30 57 3d 14 92 31 bd 73 45 04 3d
       -0.008890474 0.05253647 -0.0433522 0.032292794
0001e0 ab bf 3e bd 24 93 be 3c e0 52 3a 3d 89 b8 cb 3b
       -0.046569508 0.023263521 0.045489192 0.0062170667
0001f0 21 33 51 bd eb 00 17 3d f3 2f c4 3c 1a 5c 52 3d
       -0.05107415 0.03686611 0.023948645 0.051357366
000200 2c db 4a bd 3e 6f 31 3d 61 21 e5 3a e7 22 3f bd
       -0.049525425 0.04331898 0.0017481261 -0.046664145
000210 49 d2 76 3b 8b a4 48 bd 8b 9e 13 3c 40 c9 28 bd
       0.003766196 -0.048985045 0.009009968 -0.041207552
000220 be 62 7b bc f1 92 6b 3d 82 c9 61 bc 2e c4 d6 3b
       -0.015343366 0.05751318 -0.013780953 0.006554148
000230 62 07 f4 bb d0 96 1e bb a9 da 32 3d 3c ba d2 3c
       -0.007447169 -0.0024198778 0.04366556 0.02572357
000240 e2 eb 0a 3c e7 d7 2f 3b bd c1 26 bc 78 7c 06 3c
       0.00847909 0.0026831569 -0.010178027 0.008208387
000250 6c c6 c5 3c bd 93 41 3d b3 60 4c 3c 21 3a 5a 3d
       0.024142466 0.047260035 0.012474227 0.053278092
000260 a6 07 a7 bc 88 9a 4c 3d 6b 6a 20 bd a8 4e c5 bc
       -0.02038939 0.04995206 -0.039163988 -0.024085358
000270 8c 8f 00 3c 05 8d 51 3c 1d c2 58 bd 50 de 97 bc
       0.007846724 0.012789969 -0.052919496 -0.018538624
000280 eb 50 a5 3c 44 99 24 bd 1e 19 1e bd a8 c1 f2 3c
       0.020180186 -0.040185228 -0.038598172 0.029633358
000290 23 3b ca bc 71 b5 df 3c 02 db 94 bc ca 9a 9a 3c
       -0.024686402 0.027308198 -0.018170837 0.018872637
0002a0 da b8 96 bc b0 c0 2f bc 41 fa 38 3c 46 60 0c bd
       -0.018398691 -0.010727093 0.011290134 -0.0342715
0002b0 fc 5d 0f bd 80 39 96 3c 2b 99 28 3c 40 74 88 3c
       -0.03500174 0.018337965 0.010290424 0.016656995
0002c0 8d 90 11 bd e1 a7 24 3d b6 a6 21 bd f0 70 6d 3b
       -0.035538245 0.040199164 -0.03946563 0.0036230646
0002d0 96 50 be 3c 03 6b 18 bd de c9 59 3d ec e3 2c bd
       0.023231786 -0.03721143 0.05317103 -0.04220955
0002e0 58 d2 7e bc d7 7f 25 3d 54 02 44 bd 41 3d 53 bd
       -0.01555308 0.04040512 -0.047853783 -0.05157209
0002f0 1a 39 3e 3d ed c0 28 3d 97 7b 07 3d 64 e1 13 3d
       0.046441175 0.041199613 0.03307685 0.03610362
000300 ec 3d 90 bb ab 7b 36 bc b2 06 66 bc 52 d7 fa 3c
       -0.004401913 -0.011137883 -0.014039682 0.03062025
000310 0f 4a 0a bd 3b 06 88 3c ce 6a 5c bb d9 45 7f 3d
       -0.033762034 0.016604533 -0.0033632996 0.06232247
000320 f1 30 2e 3d ec a3 1b bd cf e4 39 bd 40 82 b8 bb
       0.042527143 -0.037998125 -0.045384225 -0.0056307614
000330 f8 2d 48 bd 1f ee a2 3c fb 0a 5c 3d f0 65 24 3b
       -0.048871964 0.019888936 0.05372141 0.0025085174
000340 2c 85 f6 3c 4f 05 b4 3c 18 57 99 bc f2 71 4f bd
       0.030092798 0.021975188 -0.018718287 -0.050645776
000350 8c 02 4b 3d 06 c1 16 bd e6 b3 c9 bc 29 53 c9 3c
       0.049562976 -0.036805175 -0.024621915 0.024575787
000360 25 13 48 bd 83 9d 1b 3d c1 04 3a bd 36 93 84 3c
       -0.048846383 0.03799201 -0.04541469 0.016183477
000370 e5 62 04 bd c1 33 08 bc 6c 22 6b 3c 34 61 45 bd
       -0.032320876 -0.00831312 0.0143514685 -0.048188403
000380 04 ec 42 bc 4d 77 47 3c a3 23 d1 3c 78 e3 90 3c
       -0.011897091 0.01217444 0.025529688 0.01768659
000390 78 a2 4f bc 81 76 c3 3b 99 3f 3d 3b 64 a7 fe 3c
       -0.012673013 0.0059650545 0.0028877018 0.031085677
0003a0 55 fe 26 bd a2 07 17 3d 59 8d 41 bd 6c af 6f 3d
       -0.040769894 0.036872514 -0.04725394 0.058516905
0003b0 b2 ff 54 3d 51 c9 0f 3d 4b eb 03 3d be 05 60 bd
       0.052001663 0.0351041 0.032206815 -0.054692976
0003c0 53 5c 2c bd aa 4a 38 3b ca fc 64 3d 86 c4 00 3c
       -0.042080235 0.0028120675 0.05590514 0.007859355
0003d0 18 07 0b 3d ad 61 e8 3a 0c ea 07 3c bf c2 ee bc
       0.033942312 0.0017729305 0.008295547 -0.029145597
0003e0 24 e8 f4 bc 43 ab 32 bd a4 a0 f7 ba 8b 99 14 3c
       -0.02989585 -0.04362036 -0.0018892479 0.009069811
0003f0 7f 81 22 bd 59 5c 6c 3d c0 c7 0d bd cf 42 90 3c
       -0.03967428 0.057705257 -0.034614325 0.017609982

head.0.bias f4 [128]
000000 27 ed 56 bc f1 a7 0b 3c e0 40 b6 bc ec 42 7a bc
       -0.013118065 0.008523927 -0.022247732 -0.0152747445
000010 68 b8 66 3c d6 f3 15 3d 64 01 78 3d a2 f8 8b 3a
       0.014082052 0.036609493 0.0605482 0.0010678957
000020 2c e7 71 3d 2f 8e cf 3c cb 34 fb bc 0b fe 28 bd
       0.059058353 0.025336353 -0.030664822 -0.0412579
000030 3e 22 64 3d 6c bd 60 3d 5d 00 94 3c ca 6b 19 3d
       0.05569672 0.054868147 0.01806658 0.03745631
000040 a8 1e f1 3b 0b 3a d2 3b a0 5a 40 bd 03 5e 16 bd
       0.007358391 0.0064156107 -0.046961427 -0.03671075
000050 03 91 7c bc e9 46 f4 bc c6 08 1a 3d 65 9b 77 3c
       -0.015415433 -0.029818969 0.037606023 0.015112733
000060 b2 d6 b4 bc 36 c2 a5 3d e2 27 57 bd 70 b8 7f bb
       -0.022075031 0.080936834 -0.05252827 -0.0039019845
000070 1f 5a 2a 3d 5e 9b 75 3d c2 d6 4f 3d 8a 03 28 3d
       0.041589852 0.059962623 0.05074192 0.041019
000080 4e d1 8d bc 34 09 92 bc ba 25 09 3d ab f1 04 bd
       -0.017311718 -0.017826654 0.033483244 -0.032457035
000090 b4 04 40 3d 33 16 8b 3d 07 1d 82 bd 32 b2 9f 3c
       0.046879485 0.067913435 -0.06353193 0.01949415
0000a0 40 7c a4 3c 76 1f 68 3d a1 c1 17 bc 61 2d 25 3d
       0.020078778 0.05667063 -0.009262473 0.04032648
0000b0 4c e0 29 3d f8 05 06 bd c7 d5 98 3d b5 3c c5 3b
       0.04147367 -0.032720536 0.0746265 0.0060191997
0000c0 d4 96 7c 3d 21 7d fa 3c 36 7c 52 3d 51 b5 80 3d
       0.06166728 0.030577244 0.051387988 0.06284583
0000d0 6e d8 28 3d 2a 78 e4 bb 1b 12 ff 3c 89 87 7b 3d
       0.04122203 -0.0069723325 0.031136563 0.061408553
0000e0 10 65 8f 3c 1e 25 f9 bc 0e 0f fe 3c 6f 8c 13 bc
       0.017504245 -0.030413207 0.031013038 -0.00900565
0000f0 80 42 da 3d 13 53 02 bc f0 f2 8a bb d3 c3 9b 3c
       0.10657215 -0.007954377 -0.004240386 0.019014275
000100 64 17 c2 3d f1 66 2b bd 2a 31 93 bb b2 c6 f7 3c
       0.09477118 -0.04184622 -0.004491945 0.030246112
000110 89 e9 4a bd e4 08 50 bd 2e 29 34 bd e1 66 5e 3c
       -0.049539123 -0.05078973 -0.043984585 0.013574333
000120 bd 87 86 bc f8 bd 8c bc bd 47 a5 3d db 4a 92 3c
       -0.016422147 -0.017180428 0.080703236 0.01785796
000130 9d dd f1 3b 93 ea ae ba 14 b8 50 3d 5d 70 5b 3d
       0.0073811547 -0.0013345055 0.0509568 0.053573955
000140 71 f4 c6 3c 74 66 bb bc 66 e2 40 3d 3c c5 40 bc
       0.02428648 -0.022876002 0.04709091 -0.011765774
000150 7b 4d 57 3d 49 01 30 3d e3 6a 29 3c 2c c0 0c bc
       0.052564126 0.042969976 0.010340425 -0.008590739
000160 89 df bb 3c a2 d6 4d 3c f0 df 6a 3d 08 cc 46 bc
       0.022933738 0.0125633795 0.05734247 -0.012133606
000170 cf 5e fe bc 6e 66 ad bc e5 46 91 bc ab 91 2e 3d
       -0.031051068 -0.021167006 -0.017734 0.04261939
000180 5e 75 a8 3c 06 ef bd bc da b2 a3 3c c8 33 32 3a
       0.020563778 -0.023185264 0.019982744 0.0006797877
000190 ef 69 13 3d ab 3c ae 3c 97 cd af bc 9b 1d 1e bd
       0.035989698 0.021269163 -0.021460338 -0.038602453
0001a0 de 57 55 3d e5 f3 9d 3d c7 71 54 bd d1 cb a7 3c
       0.05208575 0.07712535 -0.05186632 0.02048293
0001b0 06 a4 2c 3d e2 a1 0a bd a3 a6 26 3d 20 17 a2 bc
       0.042148612 -0.03384579 0.04068626 -0.019786417
0001c0 7d f8 d7 3c c9 b4 02 bd 8e f5 1d bd 87 d0 a9 3c
       0.026363606 -0.03191069 -0.038564257 0.020729316
0001d0 1a b0 18 bc 03 be 4d 3c 8f 9c 24 3c f4 85 31 3d
       -0.00931933 0.012557509 0.010047092 0.04334064
0001e0 00 fe f6 3c 87 dd 9b 3d be 8b 06 bd 73 ec c3 3d
       0.030150414 0.07610612 -0.032848112 0.095665835
0001f0 fe c1 55 3d 4d f5 bf 3c 96 11 31 bc a9 73 8a bc
       0.05218696 0.023432398 -0.0108074155 -0.016900854

head.2.weight f4 [36, 128]
000000 0e 50 03 3c 13 2e c5 3c 1a f2 e2 3b 87 37 21 3c
       0.008014692 0.024069821 0.0069258334 0.009839899
000010 f1 f1 13 bd f0 51 97 bb 18 53 c9 bc 76 77 9d 3c
       -0.036119405 -0.004617922 -0.024575755 0.019222002
000020 ef 9e 87 bd 33 e6 38 bd 27 01 cf 3c 9a bd c5 bb
       -0.06622111 -0.04514141 0.025269104 -0.006034565
000030 44 dc f1 39 ee 31 3c 3d 4d c6 7a 3d 12 86 37 bc
       0.00046131213 0.045946054 0.06122427 -0.011201398
000040 ba b8 2d 3d e5 c6 9c bc 40 26 da 37 00 18 3a 3d
       0.042412497 -0.019137809 2.6005437e-05 0.045433044
000050 84 b4 14 b9 00 00 00 00 85 e4 05 bd f1 e8 d9 3c
       -0.00014181627 0.0 -0.032688636 0.026600333
000060 60 dd 2a 3a 4c c1 38 3d 0a fc 2c bc 21 41 8e bd
       0.0006517973 0.045106217 -0.010558138 -0.06946016
000070 0a 0c 1c 3d a2 5a b7 bc 9e 9a c7 3b 00 00 00 00
       0.03809742 -0.022382084 0.00609143 0.0
000080 13 31 7f 3c 30 3c 24 bd ac ec 83 bd f0 95 89 bc
       0.015575665 -0.04009646 -0.06441626 -0.016795129
000090 6e eb 94 bd 94 48 95 bd 34 43 0a bd 6b 70 0b 3a
       -0.07271467 -0.07289234 -0.033755496 0.0005319181
0000a0 c4 a9 5d 3b 49 6a 02 3d 13 92 96 bc 81 df 28 3d
       0.0033823112 0.031839643 -0.0183802 0.041228775
0000b0 17 12 cc 3c b1 98 bb bc 51 bf 31 3e 65 8c 50 3c
       0.02491097 -0.022899957 0.17358138 0.012728785
0000c0 a3 0c 9b 3c 07 38 c1 bc b5 e3 47 bd 50 c9 b1 3d
       0.018926924 -0.023586286 -0.048801143 0.086809754
0000d0 07 c4 9e bc 30 e2 8e bc da b2 62 3d c1 48 5d 3c
       -0.019380582 -0.017441839 0.055346347 0.013506115
0000e0 65 fd ac 3c 27 0a b6 ba 8b 1d 02 bc 46 e1 80 bd
       0.021116922 -0.0013888524 -0.007941614 -0.062929675
0000f0 c9 8c 21 3b 6b fe b1 3c 0b 2c e7 3d 0b b5 3d bd
       0.0024650565 0.021727761 0.112876974 -0.046315234
000100 10 81 1e be 39 7d c1 bc b7 56 aa 3c d1 e8 a1 3c
       -0.15478921 -0.023619281 0.020793302 0.019764336
000110 00 00 00 00 24 b3 53 bc 3a ba 2f 3c d0 21 17 bd
       0.0 -0.012921128 0.010725552 -0.03689748
000120 f4 f7 fe bd 34 2e ee 3b 3a ee 73 3d 67 77 3d 3d
       -0.12449637 0.0072686914 0.059553362 0.04625645
000130 5f d7 81 3b a1 75 1c bd e1 f7 a8 3c 34 c1 82 bb
       0.003962442 -0.038198117 0.02062601 -0.0039903168
000140 e3 18 9f 3b 85 0d d2 bb 7b a8 22 3d 41 6c 70 bb
       0.0048552616 -0.006410303 0.039711457 -0.0036685618
000150 ec 8f d9 3b a5 56 99 ba 76 34 28 3c cd d4 0f bc
       0.0066394713 -0.0011698796 0.010266414 -0.008778763
000160 b1 0c 8c bd b0 80 c2 bc 38 3d 56 3d bc 7f 5a bb
       -0.06838358 -0.023743004 0.052304476 -0.0033340296
000170 b7 8d f9 3b 34 5a 9c bb 59 08 7f 3a 98 25 d8 3b
       0.0076157707 -0.0047714952 0.0009728722 0.0065962784
000180 7f 37 1d 3c 87 5e 07 39 3a 6b d1 b9 85 66 6a bc
       0.009595751 0.00012909817 -0.00039943476 -0.014306669
000190 25 f7 15 3d 0d 86 c8 3b cd a6 cf 3a 7a cd af 39
       0.03661265 0.0061194957 0.0015842557 0.00033531693
0001a0 0b 6e 5c bd b8 00 58 3d e3 64 a8 38 dc 29 6a 3c
       -0.053815883 0.05273506 8.029656e-05 0.014292207
0001b0 7b 38 20 3d 19 c7 9f bc 7e b7 1f 3c 0c 7d 98 bd
       0.039116364 -0.019504117 0.009748338 -0.07445726
0001c0 48 95 f1 bb fa da 8b 3a 73 65 13 bd 39 5c a4 3c
       -0.007372532 0.0010670118 -0.03598542 0.020063506
0001d0 dc 31 eb 3b 6a cf 51 3d 74 d0 d9 3b 01 94 06 bc
       0.0071775746 0.051223196 0.006647164 -0.008213998
0001e0 00 00 00 00 5d 8b db 3c a1 51 df 3c 7e bf 38 bd
       0.0 0.026799852 0.027260603 -0.045104496
0001f0 36 fa a5 bc da d7 8c 3b cb 89 c7 3c b4 70 6b bb
       -0.020260911 0.0042981924 0.024357697 -0.003592533
000200 9d 93 06 3c 79 45 27 3c f3 66 c3 3c 0a 66 94 3c
       0.008213905 0.010209435 0.023852801 0.018115062
000210 91 ee 12 3d b6 ad b2 bc be 14 24 3a 01 fd 02 3d
       0.035872046 -0.021811347 0.00062591943 0.031979565
000220 a6 b1 c5 bc 44 d2 0e bd 69 e8 fd 3c 0c 44 2c 3c
       -0.024132561 -0.034868494 0.03099461 0.0105142705
000230 d3 e0 d7 bb 80 86 f2 3c 10 1b be 3c 68 11 57 bb
       -0.0065880804 0.02960515 0.023206264 -0.0032816771
000240 46 9a 65 3b ef fa a3 bb c8 f5 d3 33 0b 7e d6 3c
       0.003503458 -0.005004279 9.8701605e-08 0.026183149
000250 62 7b ed b9 00 00 00 00 59 6b 52 3c 49 55 e1 3c
       -0.0004529609 0.0 0.0128429765 0.027506487
000260 53 2b 18 3b 64 52 25 3c 27 5e 5c bc 48 fa ae 3a
       0.0023219183 0.010090444 -0.013450182 0.0013349736
000270 91 01 95 bb 81 13 c7 bc 39 02 2b 3a 00 00 00 00
       -0.004547306 -0.024301292 0.00065234635 0.0
000280 86 65 a5 3c 7a 2a f2 3c 48 4f fc bc 32 b2 b1 bc
       0.020190012 0.02956127 -0.030799523 -0.021691415
000290 58 57 86 bd e3 18 17 bd e4 3e 66 bc bc d2 ba bc
       -0.06559628 -0.03688897 -0.01405308 -0.022805564
0002a0 26 f3 d9 bb c3 f6 10 3d fb a6 2f 3c 07 20 0b 3c
       -0.0066513 0.03539158 0.010720964 0.008491523
0002b0 dc fb 40 3b 32 04 30 bc 7e 1c a2 3d fd 8f bc bc
       0.0029446995 -0.010743188 0.07915591 -0.023017878
0002c0 4a 00 0a bd 81 e5 6b bc 3d a3 42 3c ec 30 22 3d
       -0.033691682 -0.01439798 0.011879739 0.039597437
0002d0 97 56 91 3c 4e fd ba bc 0d 66 1d bc f9 b9 9a 3c
       0.017741485 -0.022825863 -0.00960685 0.018887507
0002e0 92 0f cc 3c 2a 4b aa bb b1 1e 0e bb 38 59 e6 bc
       0.024909768 -0.0051969485 -0.0021685774 -0.028118715
0002f0 85 38 be 39 95 35 1b 3c 17 76 8c 3d 9a eb 2b 3b
       0.00036281734 0.009473224 0.06858461 0.0026232959
000300 6f 11 54 bd 09 2b 84 bc 6f b0 a9 3b c3 0c f5 3c
       -0.05177444 -0.016133802 0.005178503 0.029913312
000310 0c a5 ac 30 39 42 13 bb 00 8e 5e bb 9a e8 dd 3c
       1.2561556e-09 -0.0022469892 -0.003395915 0.027088452
000320 7b fd 85 bd eb 38 a8 3c a4 af 11 ba 76 ab a9 3c
       -0.06542488 0.020534953 -0.00055574835 0.020711642
000330 d7 b0 aa 3c 1d 0c cd 3b d4 d0 d0 bc 00 b4 52 3b
       0.020836277 0.0062575475 -0.025490202 0.0032150745
000340 1a 7a 23 3c 8c f3 c7 3a 8f 45 53 3d 76 4f 26 3d
       0.009977842 0.0015255078 0.051580008 0.040603124
000350 bf 0e ea bb 97 f4 7c b8 31 3f 05 3c 24 f1 12 bc
       -0.007142871 -6.0309274e-05 0.008132742 -0.008968625
000360 bd 66 b5 3c d6 14 3b bc f9 01 14 3d 25 6d b6 bb
       0.022143716 -0.011418542 0.036134694 -0.0055672103
000370 a6 1b 64 3b 45 be 24 3a bf 70 5a 3c a4 77 05 bc
       0.0034806519 0.0006284456 0.013332545 -0.0081462
000380 01 1d e6 3c 74 72 02 ba 90 8d 87 3b 1b 70 c5 bb
       0.028090002 -0.0004976161 0.0041367486 -0.006025327
000390 9e 57 23 3d be 0f 07 3c a8 16 35 3c 05 aa 3b ba
       0.03987848 0.008243499 0.011052765 -0.0007158819
0003a0 fd 3d 9e 3c 51 a9 ef 3b 75 60 9c b9 9d c8 ff 3c
       0.019316668 0.0073138853 -0.00029826505 0.03122359
0003b0 13 c0 04 3c 96 cc 06 3c a7 68 08 3c 43 4e e3 bc
       0.008102435 0.008227488 0.008325732 -0.027747279
0003c0 03 25 ba 3b 15 17 43 bb 39 f9 cd 3b 3f 3c 30 3d
       0.0056806817 -0.0029768397 0.006285813 0.043026205
0003d0 bb 26 36 3d e9 9f 25 3b 1b d1 87 3b e8 cd c7 bc
       0.04447053 0.0025272316 0.0041448004 -0.024390176
0003e0 00 00 00 00 2f 5f 17 bd b0 42 85 3c 55 9b 22 3b
       0.0 -0.03695601 0.01626715 0.0024811823
0003f0 a5 0f 9c 3c 99 1f dd b8 02 7a 28 3c 0f e2 0a bc
       0.019050429 -0.00010543987 0.010282995 -0.008476748

head.2.bias f4 [36]
000000 48 b4 82 3d 12 47 b1 3c a1 cc a2 3c 27 e9 cf 3c
       0.06382042 0.021640334 0.019872965 0.02537973
000010 30 fa ed 3d d1 0d 34 3d d1 43 52 3d c3 83 66 3c
       0.11619985 0.04395849 0.051334206 0.0140695
000020 2d 8c c7 3d 78 a3 b6 3c 90 c8 15 3d 01 2b 61 3d
       0.09743533 0.022294745 0.036568224 0.054972652
000030 05 14 7b 3d 26 36 53 3d d0 53 5f 3d 5a 20 85 3d
       0.06129839 0.05156531 0.05452329 0.06500311
000040 be b4 a7 3d 3b 6b 36 3d 09 14 ca 3c ba 96 cd 3c
       0.08188771 0.044535857 0.024667757 0.025096286
000050 4e 7c ca 3d dd 25 96 3d f4 da 87 3d a1 f5 14 3c
       0.098869905 0.073314406 0.06633559 0.009091766
000060 e1 60 27 3d 32 96 0c 3d ce c7 5a 3d dc e1 34 3d
       0.040863875 0.034322925 0.053413205 0.04416071
000070 c4 01 1c 3d d5 29 85 3b 5b a1 b0 3c 4e 27 11 3d
       0.03808762 0.0040638247 0.021561315 0.035437874
000080 3e 22 c7 3d fa 2e 72 3d 2e 9a 59 3d 80 4d 0d 3d
       0.09723328 0.05912683 0.053125553 0.034497738
