apps/ai/skpt/agent_CNN3_0_qnet.pt (torch, 212595 bytes, 12 tensors)

board_tower.0.weight f4 [16, 2, 3, 3]
00000000: 2f1d b6bd a1ea fd3d 4511 ebbd 88cc b83c
00000010: ccce b0bd abf9 8fbd 3fac 603d 5422 42bd
00000020: 2e97 c43d 29f8 653e ccac a83d 9359 f3bb
00000030: 74c5 b1bd 8d83 95bd 2b65 9e3c d2a1 703e
00000040: 05d9 08bc 0a26 dcbc 0d06 e3bd de2c 1f3c
00000050: abf8 483e 1f55 b63d c8a9 2d3e 1d5b 47bd
00000060: 801d 99bd b84b 5a3e 99f5 3ebd 20ee 6abd
00000070: 7343 eebd c1eb 10be f45d 5bbe fd0f 9dbd
00000080: 3093 63be b2d2 633c c65e 693e 2295 35be
00000090: 2eb2 3c3d e91e 1d3e 6745 18be c338 24be
000000a0: 4afc 64be 1a55 863c e37a 09be 5193 6d3d
000000b0: 8470 0cbe 523d 50bc 8b06 0c3e 9733 d03d
000000c0: fa0d 22be c8d2 833d fa83 1ebe 87fc eebd
000000d0: 9ab0 55be 7cd1 3f3e 3fac 0a3e 7669 8fbd
000000e0: a9e7 d53d 7461 4b3e 70d0 643e 1586 6bbe
000000f0: d153 53bd 11ce 2f3d 2992 01be bd4c f3bc
00000100: b278 09be ab6e 723e c753 5dbe 7d6e 67bd
00000110: f9fa cd3d 9d6a 88bd f84c 913d 1f79 04bd
00000120: 5138 b43d 2365 213e 691b 573e b9f7 813d
00000130: 53fe 07be fbf7 3bbd 42a0 583e a19e 203d
00000140: 1e4c 023d 00ea 753d c05e 263e a164 fdbd
00000150: e66a bcbb c7f9 423d 0ccd 5c3d 200d 333e
00000160: ca68 91bb 00df 89bd fa79 2abd e7b9 d83d
00000170: 4e22 b83d 5fcd dd3c 5cb7 1d3d 8b34 2d3e
00000180: 7ea5 0bbe 9fa4 333e 6029 653e 1873 20bd
00000190: d1f9 11be a34b 143e 0997 853d 4d32 723e
000001a0: 688c 08bd 2e27 95bd 0797 48be 5485 1cbe
000001b0: b380 223e b358 16be 344a 273d 3e35 6b3d
000001c0: ade4 d7bd 7ad3 903d db98 6d3e 593e 03be
000001d0: f7e9 64be 2b54 b23d 123a e53c 7232 06be
000001e0: dc66 553e 1577 1cbe 25ce abbd 200e 5dbd
000001f0: 2f67 593e 24ac 0dbe 2690 e93c 21db b3bd
00000200: f253 463e 56bc 1cbe 9243 f3bd f293 d93c
00000210: d716 adbd 3321 39be e3fe ff3d 0dca 4cbe
00000220: 4b53 8a3c 5ad9 2abe f046 253e 8bf7 933d
00000230: fef9 b43c f0ce 283e bb2b cf3d 017d 95bd
00000240: 2083 0cbd 151d 52bc 263f 1dbe b4e4 543e
00000250: ded1 053e 5510 9fbd 35a4 cabd d6a8 513e
00000260: cd02 57be 938d 12be 898d 92bd acdf 8a3c
00000270: aea7 c9bd 64cb dbbc 0b9e 683e 2482 c23d
00000280: 919c 673d f01a 07be 3810 d3bd c959 773d
00000290: 161c b4bd 59b2 61be b98e 41bd 5a2e 4e3e
000002a0: d7c1 40be edc6 f9bd e411 0d3e 4e67 f53d
000002b0: 5c68 86bd 8365 88bb 46c4 a43c eda4 743b
000002c0: 5b37 8dbd 54c2 a23d ae50 9b3d c8a7 11be
000002d0: 7f21 6ebe 7016 bfbd 777b 71be 892a 573e
000002e0: 5f7d 2f3e a57c 1b3e 5c7b dbbd 3da8 c8bc
000002f0: 2c19 80bd a4f8 b23d 4960 a0bb 0e8a f0bb
00000300: ef70 0ebe 2760 bb3d c226 06bd 4fc1 2dbe
00000310: baac 153e 40f3 593e 1b2c 8cbd 6727 49be
00000320: c1f8 7e3d 404b a93d 0efb 403e 6762 33be
00000330: 28e6 043e beaa e83d 30c1 c13c 24b9 68be
00000340: fba0 ec3d a08e 50be 79ce 1dbe 3f04 4b3e
00000350: ba5c 4bbe 4360 61be 7282 f1bd 3d47 89bd
00000360: 6c1e c63d 6ef5 643e 13f9 b23c db1c f23b
00000370: 19f8 eebc b812 28be b355 49be f0c2 193d
00000380: 577c 5abe 7d3e 143d 8ebb d8bc d863 8fbd
00000390: c325 f4bd 6889 0ebe c0d7 25be 92d4 2e3e
000003a0: 218b 053e ad18 62be 2338 5d3e e976 6cbe
000003b0: 9fd3 41be 9c46 0cbe 2004 84bd 5ba3 8f3b
000003c0: a7fb 52be ab44 4c3e c61b f03d 483a 5cbe
000003d0: 4bc4 abbd 8c85 d13c b9ea 3e3e 1a98 7fbc
000003e0: c5de d43c f586 373e dad8 6f3e a68a 04be
000003f0: 16d5 623e 79b5 c83d 377a 13be 739e 1bbd
-0.08892285 0.123982675 -0.11477903 0.022558466 -0.086331934 -0.07030042 0.054851767 -0.04739602
0.09599148 0.22457947 0.082360834 -0.0074264496 -0.08680239 -0.07300482 0.01933535 0.2349923
-0.008352523 -0.026873607 -0.110851385 0.009715287 0.1962611 0.08902954 0.16959298 -0.048670877
-0.0747633 0.21317947 -0.04662094 -0.057356 -0.11633959 -0.14152433 -0.21422559 -0.07669065
-0.22224116 0.013905214 0.2279006 -0.17732671 0.046068363 0.15343823 -0.14870225 -0.16037278
-0.22361866 0.016398001 -0.13425784 0.05800182 -0.13714796 -0.012709932 0.13674371 0.1016609
-0.15825644 0.06436688 -0.15480033 -0.116692595 -0.2086815 0.18732256 0.13542269 -0.07002537
0.10444576 0.19861394 0.22345138 -0.23000367 -0.051593605 0.04292113 -0.12653412 -0.029699678
-0.13424948 0.23675029 -0.2161399 -0.056501854 0.10057635 -0.0666096 0.07094759 -0.032342073
0.08799804 0.15761237 0.2100655 0.063460775 -0.1328061 -0.04589079 0.21154884 0.03921378
0.031810872 0.060037613 0.16247082 -0.12372709 -0.005750048 0.047601487 0.053906485 0.17485476
-0.0044375407 -0.06731987 -0.041620232 0.10582333 0.08990918 0.027075468 0.038504943 0.16914575
-0.13637349 0.17543267 0.22379065 -0.039172262 -0.14255454 0.14481978 0.06522948 0.23652
-0.033337027 -0.072828636 -0.19588862 -0.15285236 0.15869407 -0.14682274 0.04084225 0.057423823
-0.10541663 0.07071586 0.23202841 -0.12816752 -0.22354876 0.0870746 0.027981792 -0.13105181
0.20840019 -0.15279801 -0.08388928 -0.05396855 0.21230768 -0.13835198 0.028511118 -0.0878203
0.1936796 -0.1530622 -0.118781224 0.026559804 -0.08451622 -0.18079071 0.12499788 -0.19998951
0.01688542 -0.16684476 0.16140342 0.072249494 0.022091862 0.1648519 0.10115763 -0.07299233
-0.034304738 -0.0128243165 -0.1535612 0.20790368 0.13068339 -0.07766787 -0.09894601 0.20474562
-0.20997162 -0.14311819 -0.07155902 0.016952358 -0.098464355 -0.026830383 0.22716539 0.094974786
0.056545798 -0.1319387 -0.10305828 0.06038836 -0.087944195 -0.2204069 -0.04725525 0.20134869
-0.18823944 -0.12196145 0.13776356 0.119825944 -0.06562874 -0.0041624918 0.020113122 0.0037329749
-0.06895324 0.079472214 0.07583748 -0.1422416 -0.23254965 -0.093304515 -0.23582254 0.2101232
0.17137669 0.15184267 -0.10716888 -0.024494285 -0.06254801 0.08738831 -0.0048942906 -0.007340676
-0.13910268 0.09149199 -0.032751806 -0.16968273 0.14616671 0.21284199 -0.0684435 -0.19643937
0.06224895 0.08266306 0.1884577 -0.17518006 0.12978423 0.113606915 0.02365169 -0.22726876
0.11554142 -0.20366907 -0.15410794 0.19825839 -0.19859591 -0.22009377 -0.117924586 -0.06703041
0.09673771 0.22359249 0.021847283 0.0073886937 -0.029171037 -0.1641339 -0.19661598 0.037539423
-0.21336494 0.036192406 -0.02645662 -0.070014656 -0.11921265 -0.13919604 -0.16195583 0.17073277
0.13041355 -0.22079726 0.21603446 -0.23092236 -0.18928383 -0.1369881 -0.06446099 0.004383487
-0.2060381 0.1994807 0.11724047 -0.21506608 -0.08387049 0.025576375 0.18644227 -0.015600229
0.025985131 0.17922576 0.23422566 -0.12943515 0.22151598 0.09800238 -0.1440209 -0.037992906

board_tower.0.bias f4 [16]
00000000: 9996 2cbe 2683 0b3e f480 53be 99bd 48bd
00000010: 301a 553d ac51 cb3d b511 50bd 0353 603e
00000020: f206 ffbd 89ab 7a3b 7e42 083d cec5 213d
00000030: 85f5 83bd da55 423e e5e1 6e3e 3d22 503e
-0.16854323 0.13624248 -0.2065466 -0.04900894 0.052026927 0.09927687 -0.050798137 0.21906666
-0.124524966 0.0038249216 0.033266537 0.039495282 -0.064433135 0.18978062 0.2332836 0.20325561

board_tower.2.weight f4 [32, 16, 3, 3]
00000000: f152 9cbd 74aa 98bd 73b7 a43d 108c 4b3c
00000010: 56a2 abbc feef 8e3b 2291 f13c 2846 4fbc
00000020: b22d 653d a621 afbc 17c8 f13c c022 bc3c
00000030: 04f9 663d 7014 9a3d cea9 693d 9600 303d
00000040: dbb4 53bd 235b 443c 8486 1eba 2a56 e7bc
00000050: d132 d23c 3e30 1a3d a62b 8b39 07b6 a73d
00000060: ccd9 4abd 47da 37bc f83d b23b 06b0 573a
00000070: 2700 853d feb7 763d 1a5e ac3b a6f4 963c
00000080: 7d7e 8d3d f88c a3bd fea8 01bd a8fd f5bc
00000090: b1e6 06bd a116 843d 222d 9c3d 02d4 1cbc
000000a0: d474 4bbd 2fa7 9abc 4bcb b73c 8ea3 03bd
000000b0: 2a75 53bc 3e7d 08bd 4b77 8dbd 395c 173d
000000c0: 5fd9 5d3c 4a98 a1bd 5a10 d1ba 0cb9 8abd
000000d0: e3dd 443b bd96 ddbc c23a 81bd 8422 97bd
000000e0: 2e67 523d a1fd 8cbd 2bd0 503c d8a6 3d3d
000000f0: 5d8c 003c 81a1 b23c b66c 5cbd 5ecd eabc
00000100: af07 053d c7ee a13c 16bb 9f3d 3650 b1bc
00000110: b7ec 273d 7306 83bd 8a1b da3c c81c 2dbd
00000120: 20ff 08bd 9525 77bd de31 303c c0c3 0e3b
00000130: 6388 0d3d 0a9e 9f3c 3cd0 3dbc f44e a3bd
00000140: ae4d babb 14bb 4b3d fc69 80bc 0d67 1b3d
00000150: e2d4 02bd 7ccc a1bd 9d02 a2bd 7ec9 93bd
00000160: 045f d73c 992b 7b3d aeef ebba f25a 953d
00000170: 1883 ab3d f256 a93c 53ed e83c 6715 4ebd
00000180: fc85 82bd 3333 9cbd 3228 753d 1263 a03d
00000190: 34d4 1839 1964 50bd 0fbd 8fbd a405 40bc
000001a0: 790e 50bc 8235 453d 990b 26bc 8d8a 783d
000001b0: 052f dcbb d83c 9fbd 84be 52bd bdf2 053d
000001c0: dea6 26bb cbe0 f8bb 0df6 5e3d c0ac 89bd
000001d0: b566 92bc e7d2 9dbd f31f 66bd c943 40bd
000001e0: 1558 13bd 2c2a 96bd f61d cf3c f542 d43c
000001f0: 853c 8c3b a5a7 c4bc 0c16 f5bc 45d6 56bd
00000200: 82c6 213d 8240 36bd 1f18 673d 6314 853d
00000210: 0fc1 34bd 02bd 08bc 7395 50bd 90ed 19bd
00000220: 044d 273d 3d1b 65bd 1fcf babc c54b e1bc
00000230: 0f9a 9f3d 008f df3c 7c58 2c3d 4d0d 7cbd
00000240: a544 56bc 7948 d43c 74ff 723d 455d 0fbc
00000250: d795 2ebd da05 683d 1b0a 9a3c 7e04 ca3c
00000260: 91fb a1bd 1bd4 bdbc d5c3 173b 0874 89bd
00000270: 5f6e 5c3a 5309 273c d9ca 973d 8a1c c93b
00000280: 1c10 42bd 78af 943d 3011 163d 4218 8e3c
00000290: 8ffd c43b 8ec9 223d 9a68 1fbc d5b5 143b
000002a0: 7d04 093d 4abf c1bc f456 743d 50d8 943d
000002b0: 7f3e 943d f97b aa3d 16cf 91bd d853 503d
000002c0: 1bda 4dbd 3dd8 be3b 39f2 ce3b b372 473d
000002d0: 62f7 58bd 3a34 203d a18a 0bbd 2861 5ebd
000002e0: cdae 873d 2d4c 4f3d eb8e 463c 5f04 6e3d
000002f0: 11f8 593d 8009 823d a7ea 97bd a812 07bd
00000300: 0965 57bd 2d4b b03d 3cb7 49bd 0fa7 8ebd
00000310: 719f a23c ebde 8ebc 213b 4f3b 5906 06bd
00000320: 1da5 89bd 8bd4 20bc e6a9 703d d525 003c
00000330: 0f65 c33c 7dc4 623d 9e6d aa3d a742 3cbd
00000340: 0a7d e7bb 9f66 953d a284 a53d 81d4 2e3d
00000350: 0a41 003d 7ba1 43bd a9dc bb3c bdb6 db3c
00000360: 3463 febc d91f 87bd 11c6 8d3c 2570 873d
00000370: 91e6 283c 884e 213c 4cb4 7ebd 9b8f 90bc
00000380: 20b5 ef3c be39 93bd c85e 02bd a1eb a4bd
00000390: f2bd 58bd 6840 97bb 17ef d1bc ec4e 683c
000003a0: 8694 8cb9 2cd2 2abd 39d2 a5bc ad82 e4bb
000003b0: 5da7 9ebd 586c 8d3c c69e afbc 4ceb da3b
000003c0: 114e ce3c d879 9cba afc6 363d 0dd6 8fbc
000003d0: 0900 95bd 01fb c33c 3fad 543d 0184 a23d
000003e0: 1b38 9d3c 13d2 933d 0bc9 2cbd d2cf 82bd
000003f0: e27b 2f3d ff39 183d f553 10bd d14c e23c
-0.07633007 -0.07454386 0.08042803 0.01242353 -0.020951431 0.0043621054 0.02948815 -0.012651004
0.05595178 -0.02137835 0.029514356 0.022965789 0.056389824 0.075234294 0.057046704 0.04296931
-0.05168615 0.011984619 -0.0006047266 -0.028239328 0.025658997 0.037643664 0.00026544667 0.08189016
-0.049524114 -0.011221475 0.005439516 0.00082278287 0.0649417 0.060234062 0.005260241 0.018427204
0.06908891 -0.07985872 -0.031655304 -0.03002818 -0.03293485 0.064496286 0.07625796 -0.009572031
-0.049671963 -0.018878547 0.022435805 -0.0321384 -0.012906352 -0.033322565 -0.06907519 0.036953185
0.013540595 -0.07890375 -0.0015950308 -0.06773576 0.0030039481 -0.027049417 -0.06310035 -0.0737963
0.05136793 -0.068843134 0.012744944 0.046301693 0.007845965 0.021805527 -0.053814612 -0.02866238
0.03247803 0.019767178 0.07799356 -0.021644693 0.040997233 -0.063977145 0.02662446 -0.042263776
-0.03344643 -0.060338575 0.010754077 0.0021784157 0.034553897 0.019484539 -0.0115852915 -0.079740435
-0.0056855297 0.04973896 -0.015675537 0.037940074 -0.031941302 -0.079003304 -0.07910655 -0.07216166
0.026290424 0.061320875 -0.0018000507 0.07292737 0.083746135 0.020671342 0.028433478 -0.05031338
-0.06373212 -0.07626953 0.059852786 0.07831396 0.00014574901 -0.05087671 -0.07018482 -0.011720095
-0.012698763 0.048146732 -0.010134601 0.060679007 -0.0067194724 -0.07775277 -0.05145122 0.032702196
-0.002542905 -0.007595157 0.05443387 -0.067224026 -0.01787124 -0.07706242 -0.056182813 -0.046939645
-0.035972673 -0.073322624 0.025282841 0.025910834 0.0042796754 -0.02400572 -0.02991774 -0.052450437
0.039495952 -0.044495113 0.056419488 0.06498029 -0.044129428 -0.008345844 -0.050923776 -0.037580073
0.040844932 -0.05593418 -0.022803841 -0.02750195 0.07793056 0.027289867 0.042076573 -0.061536122
-0.01307789 0.025913464 0.05932565 -0.0087502645 -0.042623367 0.056646205 0.018803647 0.024660345
-0.079093106 -0.023172429 0.0023157496 -0.06711584 0.00084087806 0.010195094 0.07411737 0.0061374353
-0.047378644 0.072600305 0.036637485 0.017345551 0.006011672 0.039743 -0.009729529 0.0022691388
0.033451546 -0.023650784 0.059653237 0.07267821 0.07238483 0.08324427 -0.07119577 0.05086121
-0.05025683 0.0058241175 0.0063154963 0.04869337 -0.052970298 0.039112307 -0.034067754 -0.054291874
0.066251375 0.050609756 0.012119035 0.058109637 0.05321509 0.06349468 -0.07417803 -0.032976776
-0.05258659 0.08608089 -0.04924701 -0.06965458 0.019851418 -0.01744028 0.0031620937 -0.032720897
-0.06720946 -0.009816299 0.058755778 0.00782152 0.0238519 0.055363167 0.08321689 -0.045962002
-0.0070644664 0.07294964 0.08081938 0.04268313 0.031312026 -0.04776142 0.022932367 0.026820535
-0.031053163 -0.06597871 0.01730636 0.06613187 0.010308878 0.009845383 -0.062183663 -0.017646601
0.029261172 -0.07188748 -0.03182867 -0.08052755 -0.05291552 -0.004615832 -0.025626702 0.014178973
-0.0002681354 -0.04170434 -0.020241844 -0.0069735856 -0.07746766 0.017263576 -0.021438014 0.0066808816
0.02518371 -0.0011938168 0.044623073 -0.017558122 -0.07275397 0.023923399 0.051923033 0.07935334
0.019191792 0.07217803 -0.042183917 -0.06387295 0.042842753 0.037164684 -0.035236318 0.02762452

board_tower.2.bias f4 [32]
00000000: a8a5 8abc f88c 79bd 0310 383d 0f3f 97bc
00000010: b6d3 a73d 4ee3 64bd 603b d5bc d661 80bc
00000020: d119 84bd 0dc0 8bbd 7d15 43bc 4dd0 4c3d
00000030: 9937 8cbd 6d95 4f3d a6e8 9cbd 1910 77bd
00000040: c473 e43b 9ec4 34bd 927d 58bd 0ed8 ffbc
00000050: bd04 6cbd 54c3 dbbc 40d2 0abd 590e 9bbd
00000060: 9be9 8f3d 02a7 6a3b d279 1ebc 82d4 54bd
00000070: a14c 0dbd dd2d a83d a882 3f3d a465 2abd
-0.016924694 -0.060925454 0.044937145 -0.018462686 0.081946775 -0.055880837 -0.026029289 -0.015671652
-0.064502366 -0.0682374 -0.011906979 0.05000334 -0.06846542 0.050679613 -0.07661562 -0.060318086
0.006971808 -0.04413282 -0.05285413 -0.031230953 -0.057621706 -0.026826538 -0.033891916 -0.07571096
0.070269786 0.003580511 -0.009672599 -0.051960476 -0.034496907 0.08211873 0.046755463 -0.04160084

hand_tower.0.weight f4 [32, 3]
00000000: dd87 6dbe 0349 99be bc94 0a3f 62fa c3be
00000010: 8863 04bf f546 9ebe 7456 f53e 9e24 4c3e
00000020: 1854 803b 532c a9be 506f 673e 6553 943d
00000030: 5ed2 673e 278b 193e 60ea bd3e 04a3 eabe
00000040: 6717 83be e061 69bd 715e a9be 7a2d 38bd
00000050: 22ca 073f d67f 91be 5a35 ee3e 1031 f43d
00000060: 7191 e13e 2788 b33e ff5f 033f 5a54 6bbe
00000070: f719 42be 0673 c73e 13e5 ffbe b62b 863e
00000080: 5e07 70be cc90 b6bd aec4 c3bd fbae ee3d
00000090: 1f4e 27be 1f77 d3be 774d 033f f9c8 a2be
000000a0: 594b 5c3e 1760 aa3e 804d f43d b018 fbbe
000000b0: 3cad d7bd 6b2e cf3e 398e 91be 2e66 35bd
000000c0: d290 aebe 9841 453e 9060 2bbd 6c64 c4bd
000000d0: 60ae 0abf f8fc d3be 449c fc3e 5ccf 20bd
000000e0: 5d9e e63c 0fa3 d7be 6844 0f3f 6d17 0d3f
000000f0: 6988 053e 08a3 b13e 1f5b 0e3f 03d5 48bc
00000100: ad32 dd3e 49ab d73e 1551 3e3e d4c2 d9be
00000110: 2a9c d1bd 7b96 e83d ceb4 10be f545 bb3e
00000120: e872 c73e 3651 c93e 57e2 183e 0ae1 f8be
00000130: 72a8 b63e fac9 c3be 5b62 5b3e c9f5 0ebf
00000140: 2e5b eb3e 007e 563e 942b b6be c68c fcbe
00000150: c46e 873e 941a 633e 73d4 4abe 166f debe
00000160: 183b 5b3e e870 783d 41ae 4d3e b58f debd
00000170: 5fec 993e 4798 2d3d fe58 d0be af4b ee3e
-0.23196359 -0.29938516 0.541332 -0.38276964 -0.5171437 -0.3091351 0.4791752 0.19935843
0.0039162748 -0.3304163 0.22601056 0.07242469 0.22638842 0.14994489 0.37092876 -0.45827496
-0.25603792 -0.056978106 -0.33079866 -0.044965245 0.53042805 -0.28417844 0.4652508 0.119234204
0.44056275 0.35064813 0.51318353 -0.22981396 -0.18955217 0.38954943 -0.49979457 0.26205224
-0.2344031 -0.089143366 -0.09558998 0.116544686 -0.16338395 -0.4130182 0.51290077 -0.31793955
0.21513118 0.33276436 0.119288445 -0.49042273 -0.10531089 0.40465102 -0.2842882 -0.0442869
-0.34094864 0.19263303 -0.041840136 -0.095894665 -0.54172325 -0.41403937 0.4933797 -0.039260253
0.028151685 -0.4211659 0.55963755 0.5511387 0.13040318 0.34694695 0.5560779 -0.012257817
0.43202725 0.42122868 0.18585618 -0.42531455 -0.10234864 0.11356827 -0.14131472 0.3657681
0.38954854 0.39319772 0.14930092 -0.4860919 0.3567539 -0.38240033 0.21424238 -0.5584379
0.45968002 0.20946503 -0.35580122 -0.49326152 0.26451695 0.22178108 -0.19807605 -0.43444127
0.21409261 0.06065455 0.20086004 -0.10867254 0.3006315 0.04238155 -0.40692896 0.46542117

hand_tower.0.bias f4 [32]
00000000: 1d6b f9be 88db 473e c93c d43e c5f1 31bd
00000010: f004 13bf ac82 103f ad96 cf3e f062 e3be
00000020: 15cd 9bbe f508 0fbf 4019 433c 831d 503c
00000030: d504 ef3e 93a3 5d3e 7ae0 9a3e 2f06 84bd
00000040: 6d93 0ebf 688c 91bd c13d 0dbf 1ab0 473b
00000050: 3219 83be c7cb b83e f8a6 ca3e ac1b f83e
00000060: 270f 0cbf d4a5 e3be af61 bdbe 6ed3 9c3e
00000070: 963d f33e d220 15be 56b8 fa3d f936 033e
-0.48714533 0.19517338 0.41452625 -0.04344346 -0.5742941 0.5644939 0.40544644 -0.4441142
-0.30429903 -0.5587304 0.011907876 0.012702349 0.46683374 0.2164443 0.30249387 -0.06446492
-0.55693704 -0.071068585 -0.55172354 0.0030469955 -0.2560516 0.3609297 0.39580512 0.48458612
-0.5471062 -0.44462454 -0.3698859 0.30630058 0.47507924 -0.14563301 0.122421905 0.12813939

hand_tower.2.weight f4 [32, 32]
00000000: 6ca5 31be bbf5 c8bd 1ebc b23d 99a8 033e
00000010: 7e13 bb3c ddea 223e 4b33 2d3e 6ef3 56bd
00000020: 08d1 823d 2961 4f3d 6cf0 5d3d cc68 e9bd
00000030: 94d1 183e 81c5 14be 2091 08be a9fd a3bd
00000040: 171c 263e d02d 8d3c dfea 3f3d 883a a7bd
00000050: 64e3 183e ae45 72bd a05b 0c3c 4574 bbbd
00000060: b088 b43d a04b 863c 9ed5 963d a0c4 87bb
00000070: a500 12bd 5c95 bc3d 573b adbd 9327 893b
00000080: b046 9f3c e455 123d 211e 0dbe 143f 95bd
00000090: 085d 443d 1d05 1d3e 0419 2dbe 588a f03c
000000a0: 0122 2fbe ca36 b5bd e9d6 153e f3fb 0f3e
000000b0: 6053 95bc bcda e8bd 1c08 033d be50 ae3d
000000c0: 4764 313e 7206 19be b8f2 8abd 423b 9e3d
000000d0: 3931 a2bd 00ed fdba 9409 30be 2e19 03be
000000e0: f83e 8abc 2e0c 25be 5a14 ba3d 8e83 cf3d
000000f0: 2080 1bbd 8094 a63c 112c a3bd d141 1c3e
00000100: c51d 26be 381f 4e3d 6084 833b 6021 71bc
00000110: 828e 17be d072 debc ef55 0e3e 8002 09be
00000120: 420b 65bd 01c0 e3bd bd56 043e 0029 a2bc
00000130: 7868 e0bd 04c8 c7bd d8bf 113d 782f 763d
00000140: 90e8 2bbe 08e4 90bc d764 043e 8cdb 00be
00000150: 2e76 ab3d f075 adbc af97 293e 65ee 173e
00000160: 149f 51bd 3202 a43d 4cad 373d de66 ec3d
00000170: b8dc e3bc 0fa8 2b3e c718 13be bfe3 253e
00000180: cd12 ebbd 0e52 cf3d 4dd7 2ebe a1f4 0a3d
00000190: 1d43 353e f41d 16be d387 15be 4336 d13d
000001a0: ed65 1d3e 9eac e5bd 406a 613c 32c5 f8bd
000001b0: a087 32bd aee1 fd3d 7286 f9bd 9116 153c
000001c0: 8080 b1bc da2c d23d 7844 cdbd ec19 323e
000001d0: a58c 39bd 47d1 153e 8529 30bd 5c9e 8e3d
000001e0: 8245 2fbe 3011 05be ba47 00be 6067 513d
000001f0: 4493 9bbd c951 eebd a855 b23d 5dd3 1fbe
00000200: 0ab2 3c3d 2cf7 33be 9577 b0bd 9cf3 08be
00000210: 2e14 a13d deb4 27be c0b1 ce3d 96f1 2dbe
00000220: e75d 873d 0649 293e 8ac8 1abe afb9 2ebd
00000230: 7b67 1d3e c632 083e c739 153e 432d b0bd
00000240: d2e4 bd3d 823a e0bd 7a23 33be 562f 29be
00000250: e13b ca3d e80f 103e 8885 85bd 92e9 3c3d
00000260: 464f 113e 83d5 c8bd 7f82 2abe b8a1 b53c
00000270: e90c 323e 782e a63c 6a63 b63c 14e1 65bd
00000280: 287d 803d 1f19 153e 2404 a73d ce65 e8bd
00000290: 3f50 863d d0e0 0c3c 27d5 5abd 9404 bf3d
000002a0: 5a0f 00be fb17 88bd 12a4 cabd 79a5 6b3d
000002b0: a7b9 413d 5247 153e a569 143e e4b2 38bd
000002c0: ffd9 313e bc10 273d 9a42 04be f824 213e
000002d0: 29a7 f5bd 1b39 9abd eba9 753d c9f7 4a3d
000002e0: 4e86 1e3e d0de 0fbd 6885 8fbb c0d8 113b
000002f0: 0829 ebbd 2d88 8abd 6f17 283e 82c4 dd3d
00000300: 384f 5abd 5e75 a53d 1869 a6bd 3856 df3c
00000310: bba9 123e 3892 923c 58db 543d 1255 0ebe
00000320: 0207 f1bd 3296 e23d dc85 0cbd 0ee1 833d
00000330: 74c1 1c3d 224f 95bd f379 1e3e 6f1a 053e
00000340: 1818 18be 2a3f a13d b28c 73bd 6ec2 15be
00000350: 04b8 4bbd ce69 db3d ec14 173d dec6 a03d
00000360: a481 63bd 3a17 9e3d 3e5e 2abe d83a 233d
00000370: be8a b23d 80cb ffbd 0ce2 133d d849 b73c
00000380: 03f0 f7bd 344e 163d 2f72 e43c d885 913d
00000390: 8b85 99bd 5ff3 a1bd 9687 30be 0bad 21be
000003a0: ecc6 bbbc 4a26 c4bd d2be cd3d 5c31 11be
000003b0: c75d 69bd d4ca 283e 6dfa 073e 9b91 a33c
000003c0: 3fe8 033e 850a 183e 513a e9bd f6b4 453d
000003d0: 252b 2f3e 1ab5 023d 6165 df3d cbdc 3f3d
000003e0: b8ce 623d 002b 783d 5a04 99bd f8d5 29bd
000003f0: 90fb 3ebd 8036 7fbc 91cd 2cbe 0391 ab3d
-0.1734826 -0.09812494 0.08727287 0.12857284 0.022836443 0.15909906 0.16914098 -0.052478246
0.06387526 0.05062977 0.054184362 -0.113969415 0.14923698 -0.14528467 -0.13336611 -0.08007366
0.16221653 0.01723376 0.04685485 -0.08165461 0.14930493 -0.059148483 0.008566767 -0.09153036
0.088151336 0.016393483 0.07364963 -0.0041433126 -0.035645146 0.092081755 -0.08458584 0.004185626
0.019442886 0.035726443 -0.13781025 -0.07287422 0.047940284 0.15333982 -0.16904074 0.029362842
-0.17102815 -0.08848341 0.14632763 0.14060955 -0.018228233 -0.11369845 0.031990156 0.08511494
0.17323409 -0.14943865 -0.06784576 0.07726146 -0.07919545 -0.0019373 -0.17191154 -0.12802574
-0.016875729 -0.16117927 0.09085913 0.10132514 -0.037963986 0.020334482 -0.079673894 0.15259482
-0.16222294 0.05032274 0.004013583 -0.01471743 -0.14800456 -0.027154356 0.13899969 -0.1337986
-0.05591894 -0.11120606 0.12923713 -0.019794941 -0.10957426 -0.09754947 0.035583347 0.060103863
-0.16787934 -0.017686859 0.12929092 -0.1258375 0.0837215 -0.021174401 0.16561769 0.14837034
-0.0511771 0.08008231 0.044843003 0.11543058 -0.027815208 0.16763328 -0.1436492 0.1620016
-0.11478195 0.101230726 -0.17074318 0.033924703 0.17701383 -0.14659864 -0.14602594 0.10215428
0.15370913 -0.11214565 0.013758242 -0.12146987 -0.043586373 0.123965606 -0.121838465 0.0090996185
-0.021667719 0.10262461 -0.10022825 0.17392701 -0.045300145 0.14630614 -0.043008346 0.069637984
-0.17116359 -0.12994838 -0.12527362 0.051123977 -0.07596448 -0.11636693 0.08707744 -0.15607972
0.04606823 -0.17574757 -0.086165585 -0.1337418 0.07865177 -0.16377589 0.10092497 -0.16986689
0.06609707 0.16531762 -0.15115562 -0.04265755 0.15371506 0.13300619 0.14572822 -0.08602383
0.0927216 -0.109486595 -0.17494002 -0.16521963 0.09874702 0.14068568 -0.0651961 0.046121188
0.14190397 -0.09806349 -0.16651343 0.02217184 0.17387737 0.02028583 0.022264201 -0.056122854
0.06273872 0.14560364 0.08155087 -0.11347543 0.065582745 0.008598521 -0.053425934 0.09327045
-0.12505856 -0.06645199 -0.09894575 0.057530854 0.047296192 0.14577988 0.14493425 -0.04509248
0.17368315 0.040787444 -0.12916031 0.15736759 -0.11994774 -0.07530423 0.0599765 0.049552713
0.1548092 -0.0351246 -0.004379917 0.0022254437 -0.114824355 -0.06764255 0.16415189 0.108284965
-0.053298205 0.08079027 -0.08125514 0.027262792 0.1432256 0.017891988 0.051966995 -0.13899639
-0.11768915 0.11063804 -0.034307346 0.0643941 0.03827043 -0.07290484 0.15476207 0.12998365
-0.14852941 0.07873376 -0.05946035 -0.1462495 -0.049736038 0.1071354 0.036885187 0.07850431
-0.055543557 0.07719274 -0.16637513 0.03985104 0.08717869 -0.124899864 0.036104247 0.022374079
-0.121063255 0.036695674 0.027886478 0.07105607 -0.074961744 -0.079077475 -0.17239222 -0.15788667
-0.022922002 -0.095776156 0.10046162 -0.14178985 -0.0569742 0.16483623 0.13279124 0.019966891
0.12881564 0.14847763 -0.11388076 0.04826828 0.17106302 0.031910993 0.10908008 0.046841424
0.055372924 0.060587883 -0.07471533 -0.041463822 -0.046626627 -0.015576959 -0.16875292 0.08377268

hand_tower.2.bias f4 [32]
00000000: 7056 2fbe 3261 0cbe d8c7 7dbd ae91 023d
00000010: bb99 02be cce3 18bd 08b6 cdbd f002 303e
00000020: a6ef fabc 373a 9fbd 03b2 303e 9fd1 133e
00000030: d210 f33d c85a 7cbd 7594 143d f0cf 183e
00000040: 8f13 c83d 1876 09be 803f 9d3d f45b 723d
00000050: 64fd 7cbd 3a05 d5bd 147f 543d 0fb8 033e
00000060: 09e5 6bbd 6de3 babd 2a42 0d3e 7f99 2ebe
00000070: 3ba4 f83d 44d6 2abe 5364 153e 9721 9ebd
-0.17122817 -0.13708952 -0.061958164 0.031877212 -0.12753956 -0.03732662 -0.10044485 0.1718862
-0.030631851 -0.077747755 0.17255406 0.14435433 0.118684426 -0.061610013 0.036274392 0.14923072
0.097693555 -0.13423955 0.07678127 0.059169725 -0.06176509 -0.104013875 0.051879004 0.12863182
-0.05759147 -0.09125409 0.13794771 -0.17050742 0.121406995 -0.16683298 0.14589052 -0.077212505

head.0.weight f4 [128, 320]
00000000: 397d 563d b408 51bd ca6d 02bd 55f8 88bc
00000010: db5e fbbc 56a5 3c3d 94fd 593d 27f6 5f3d
00000020: e233 ca3c f971 bb3c e6cc 53bd b70b 323c
00000030: d24a 443d 4d6a 4ebd 4b99 83bc 35fa 323d
00000040: c8fd 333b a4ce d43c f0e2 413d df2c 033c
00000050: 55db c5bb 6276 ebbc 4d78 133d 64b2 193d
00000060: 9fb9 3abd f1d9 a33c 4ebe 0c3c 7d8f 273d
00000070: 5844 993b 51ad 62bd 0b68 ab3b fcbc 20bc
00000080: 8b2e 65bd 46e2 86bc 1132 86bc 4cb2 9abb
00000090: 1a62 bc3c 4e0c 233d 7ea0 edba 3866 f43b
000000a0: 9c25 733c c9bb 5d3c a26e 8fbc e866 35bc
000000b0: 44ae 283d 185a 613d 1683 56bd 3146 aa3c
000000c0: 696c 48bd 6944 36bd fb52 04bd 1ab7 493d
000000d0: 76a5 cebc d4ca d9bc bac9 55bd 51e1 f7bc
000000e0: a28d 253d 83c9 85bb a994 303d 0c82 8e3c
000000f0: 6271 bd3b 6202 a43a 6dc2 573d dcaf 373c
00000100: 247f 1abd 0022 17bd 3e7e 4a3d 580c a23b
00000110: f320 d33a bd83 39bd 310c 4ebd 2528 42bd
00000120: a086 80bc b25f 26bd d869 5abd 1b2b 59bd
00000130: 0ec1 763b 0bef 8cbc d95b 583d 19ad 39bd
00000140: d40a 22bd ada6 503d 20cc 31bd ca88 503d
00000150: 9997 05bb e815 63bd 9f54 3d3c fecf 063d
00000160: a236 293d ac34 b33b 7b37 4dbd ad1e 583d
00000170: f6ca 753c c1d5 b73b 2a3f 94bc 770e 5e3d
00000180: a8dd 50bd 9e74 43bc ec03 123d f647 9f3c
00000190: dc26 baba aaa8 08bc 112b 57bd 75d4 59bd
000001a0: a09e a7bc 12e4 1fbd 2bb6 41bc 144b 59bd
000001b0: 4f51 123d a222 abbb ccdd 41bd ec38 293d
000001c0: 5fa0 d3bc 711f 49bd f607 afbb 0df6 59bd
000001d0: a595 efbc 9cb9 153d 7ceb f4bc 4c2e 34bd
000001e0: 88d0 9ebc dfc3 5d3c 7446 49bc cb2f 4fbd
000001f0: 93d2 5c3d b684 0b3d 0a7c 513d ad61 603d
00000200: 8627 253d 0511 47bd e038 b53c 094b ed3b
00000210: d69b 39bd 47c9 513d 5d61 223d 1f64 fdbb
00000220: 320a bcbc b258 153d 1b9e cb3c ad09 52bd
00000230: f292 24bd d802 083d 49a3 09bc db7e 96bc
00000240: 679a 923c 2cc8 4d3d c90c f3bc 8042 1ebd
00000250: d469 75bc ddbb 41bc 023f 87bc 2fa9 53bd
00000260: 802e 283b 48d1 253d c021 343d c100 6b3c
00000270: 3e87 03bd 5f5e 413d 3921 463d fca9 21bb
00000280: eb50 183d 0b54 5cbd f279 423d 032d b8bb
00000290: 543a 50bd 544c 2f3d ce3b 873c 4318 d93b
000002a0: 289f 04bd fb86 40bd 540a dc3b dd4b 003d
000002b0: 2c2a 35bd db0f 18bd cb98 7d3c bf23 8ebb
000002c0: 4d73 603d 1f6d 213d 48d3 3e3d 523f 2cbd
000002d0: 14f0 fb3b 9009 a8bc 4c93 d8bc ba9a f43c
000002e0: e3a4 973c 54bf 203d 7848 4abc b6f6 04bd
000002f0: 6f1d 4d3a d6cd c03a 3b4f 5bbd 2f85 3fbd
00000300: 7a46 26bd 275b c23c 2523 673c c1a1 c1bc
00000310: adde 87bc d5f0 b23c 2771 d03c 8339 d53c
00000320: 5b2a 36bc db58 433d 8fb8 b0ba 7271 c9bc
00000330: 7d62 f1bc 83c9 143d db38 5e3c 74a8 593c
00000340: 99cf 2d3c 895b 10bd 40e4 5dbd a637 5f3c
00000350: e893 57bd 75c0 b53c 4414 61bb e717 973c
00000360: bd0e d6bc c132 543d 6207 b8bc 6e27 76bb
00000370: a36d 003d 67a6 893c e450 0abc 6537 5cbd
00000380: a050 653d 890c 523d bfaf f3bc c798 42bd
00000390: 8524 3e3c 70d4 c33c dcda 4cbc 3a07 5dbc
000003a0: 2747 003d 8e43 07bd 9da2 ba3b c1b9 a0bc
000003b0: 97c6 d5ba be50 c8bc 6eb3 1a3d 8c01 f03c
000003c0: 8920 0cbd 6d04 3e3d 4d35 f6bc 3ebf 523d
000003d0: 2bc8 403d 3517 8a3c 37f5 5a3d d822 403d
000003e0: f5b2 e5bb 9369 43bd 2c6f 163d bb38 60bd
000003f0: f4ea 013c 4750 0dbd 72b4 b8bc d1da 203d
0.052365515 -0.05103369 -0.031842984 -0.016719976 -0.030684879 0.046056114 0.053220347 0.05467811
0.024682943 0.022881495 -0.05170908 0.010867051 0.047922917 -0.050394345 -0.016064307 0.043695647
0.0027464498 0.02597744 0.047335565 0.008006304 -0.0060381093 -0.028742973 0.0360034 0.037523642
-0.04558718 0.020001383 0.008590294 0.040908325 0.0046773367 -0.05534107 0.0052309087 -0.009810682
-0.05595259 -0.016465317 -0.016381295 -0.0047209617 0.022995997 0.039806657 -0.0018129495 0.0074584745
0.01484051 0.013533541 -0.017508809 -0.011071898 0.041181818 0.05501756 -0.052371107 0.020785423
-0.048931513 -0.044498835 -0.0323057 0.049246885 -0.025225382 -0.026585974 -0.052194335 -0.030258806
0.040418275 -0.00408286 0.043110523 0.017395996 0.0057813386 0.0012512917 0.052675653 0.011211362
-0.037718907 -0.03689766 0.0494368 0.004945319 0.0016107842 -0.04529165 -0.050304595 -0.047401566
-0.015689194 -0.040618606 -0.053323597 -0.053019624 0.003765169 -0.017203828 0.052821968 -0.045331094
-0.039561108 0.050940204 -0.04340756 0.050911702 -0.0020384549 -0.055440813 0.01155582 0.0329132
0.041311868 0.0054689255 -0.05010174 0.05276363 0.015002003 0.0056101982 -0.018096525 0.054213013
-0.050992638 -0.011929659 0.03564827 0.019443493 -0.0014202255 -0.008340994 -0.052531306 -0.05318113
-0.02046138 -0.039035864 -0.011823217 -0.053050116 0.035722073 -0.0052226344 -0.047330663 0.04131405
-0.025833307 -0.04910225 -0.005341525 -0.053213168 -0.02924616 0.036553964 -0.029897444 -0.043989465
-0.019386545 0.013535469 -0.012284864 -0.05058269 0.053911757 0.03406211 0.051143683 0.05478065
0.040320896 -0.048600215 0.022121847 0.007241611 -0.045314632 0.051217344 0.039643634 -0.0077328826
-0.02295408 0.03646154 0.024855664 -0.05127876 -0.0401792 0.033205837 -0.008400747 -0.018371036
0.01789589 0.050239727 -0.029669182 -0.038637638 -0.014978845 -0.011824575 -0.016509537 -0.051675018
0.0025662482 0.04048279 0.0439775 0.014343441 -0.0321114 0.04720914 0.048371527 -0.002466797
0.037186544 -0.053791087 0.047479577 -0.0056206 -0.050836876 0.0427974 0.01650801 0.0066252067
-0.032378346 -0.047003727 0.0067150984 0.03132235 -0.04422967 -0.037124496 0.015478323 -0.0043377574
0.05479746 0.039410707 0.046588212 -0.042052574 0.0076885317 -0.020512372 -0.026437424 0.029858936
0.018511241 0.039244965 -0.012346379 -0.032461844 0.00078245153 0.0014709781 -0.053542357 -0.046757873
-0.040594555 0.023725105 0.0141075 -0.0236367 -0.016585672 0.021843353 0.02544458 0.0260284
-0.011118497 0.04769216 -0.0013482737 -0.024590228 -0.029465908 0.03632499 0.01356336 0.013284791
0.010608577 -0.035243545 -0.054172754 0.013624107 -0.05263129 0.022186497 -0.0034344355 0.018444015
-0.026130075 0.051806215 -0.022464458 -0.0037560123 0.031354558 0.01680298 -0.008442137 -0.053763766
0.055985093 0.051281486 -0.029746888 -0.04750898 0.011605387 0.023905009 -0.012503352 -0.0134904925
0.031317856 -0.03302341 0.0056956545 -0.019619824 -0.0016309795 -0.024452563 0.037768774 0.029297613
-0.034210715 0.04639094 -0.030054713 0.051451914 0.047065895 0.01685677 0.05345651 0.04690823
-0.0070098587 -0.047708105 0.036727116 -0.054741602 0.007929552 -0.034500387 -0.02254698 0.03927118

head.0.bias f4 [128]
00000000: 70c5 563d ac5a d2bc 972b c3bc c93d 8b3b
00000010: 2fb1 5b3d 076e 4dbd c8c4 4d3d 5275 5a3d
00000020: 31d3 3a3d 373e 2f3d 2634 f03c 32e4 133d
00000030: a283 403d 34ec 133c c669 d6bc 74b2 3fbd
00000040: 1232 26bc 874a a4bc d248 443d 5b63 413b
00000050: 4648 6d3a f1b3 14bd 990f 9abc 3829 a2bc
00000060: b362 a0bc 77e2 c63c e1a4 1dbd f8ff 0cbd
00000070: cdfa 473c df53 4f3d 9417 d33c 04a4 a6bc
00000080: e63b 08bd d92f aa3c 89b4 56bd 1d62 bc3c
00000090: 37e2 35bc 0b80 0a3d 1fe9 ecbc 3d1e 373c
000000a0: 8835 61bc 893d 41bd afcf 9ebc 0d81 82bc
000000b0: 0403 7b3c 886b 933c 9052 38bd ffe7 87bc
000000c0: ace2 4d3d ece4 243b fd2e d83c c0ee 4abd
000000d0: e54c 173d 5edd 54bc 9629 033d 845f f53c
000000e0: a514 263d 4254 61bc e824 f03b 84fc 3e3d
000000f0: 7724 003d 4230 2e3d 4013 c2bb 90ce 2d3c
00000100: 054f 423d 32b9 60bd c12e a0bc 3e88 b7bc
00000110: b566 5b3b 59fb 07bd 8c18 63bd 78eb 55bd
00000120: 61a2 8e3c cce4 5abb 50f8 5bbd c4a3 b5bc
00000130: a003 553c 1abd 90bc 3d35 af3a 450b 243d
00000140: dba1 1fbc ec68 c4bc a82f 78bc fc91 15bc
00000150: e158 8d3c 167c 6c3d 0bf1 463d a1cf 8fbc
00000160: eb35 033c 1d1e 78bb 05a7 743a 6267 3e3d
00000170: 7f17 083d 194b 4c3d 0820 003d add7 3cbd
00000180: 46a5 9b3c a32a 0b3d 686c e0bb 53f5 a7bc
00000190: 2a84 37bd 079a 333d b1d2 cfbc 4106 11bd
000001a0: fc80 c0bc 6d86 0b3a a237 633d 91a9 133c
000001b0: 200c 4cbd 5df4 aabc faf7 d63c 6457 f73c
000001c0: dcb3 3bbd 8abe 0bbd 25f3 24bd 1a07 3bbd
000001d0: bd65 f7bb 1a61 cc3a 1580 353b e452 38bd
000001e0: 649c ecbb 7551 0a3d a3e7 da3c 90b7 6c3b
000001f0: c9d8 8bbc f784 643d 5273 e3bc 5857 293d
0.052434385 -0.025678001 -0.023824496 0.0042493087 0.053635772 -0.05015376 0.050236493 0.05333454
0.045611564 0.042783942 0.029321741 0.036106296 0.047000535 0.009028483 -0.026173484 -0.046801046
-0.010143774 -0.020055069 0.04792101 0.0029508683 0.0009051602 -0.036304418 -0.018806266 -0.019795045
-0.019578313 0.024277909 -0.03848732 -0.0344238 0.012205792 0.050617095 0.025768079 -0.02034188
-0.03326025 0.020774769 -0.052418265 0.022996003 -0.011101297 0.033813518 -0.028919755 0.011176643
-0.013745673 -0.047177825 -0.01938614 -0.015930677 0.015320543 0.01799561 -0.045000613 -0.016590117
0.050265 0.0025160862 0.026389593 -0.049544096 0.036938567 -0.012992231 0.03202208 0.029952772
0.040547032 -0.013752999 0.0073286183 0.046627536 0.031284776 0.04252649 -0.005922705 0.01060833
0.04743864 -0.054864116 -0.019553544 -0.022403833 0.0033477966 -0.03319869 -0.05544333 -0.052226514
0.017411413 -0.0033400534 -0.053703606 -0.022172816 0.013001353 -0.017668296 0.0013367307 0.04004981
-0.009743179 -0.023975812 -0.015148081 -0.009129044 0.017254295 0.057735525 0.04856972 -0.01755506
0.0080084605 -0.0037859746 0.0009332749 0.046485312 0.033225533 0.049876306 0.031280547 -0.046104122
0.018999707 0.03397621 -0.0068488605 -0.020502722 -0.044803776 0.043848064 -0.02536902 -0.035406355
-0.023499005 0.000532246 0.055472977 0.009012596 -0.04981625 -0.020868475 0.026241291 0.030193038
-0.045825824 -0.03411726 -0.040270943 -0.04566107 -0.00754997 0.0015592903 0.002769475 -0.045000926
-0.0072207917 0.03376909 0.026721781 0.0036120154 -0.017071145 0.055790868 -0.02776495 0.041343063

head.2.weight f4 [36, 128]
00000000: b742 8839 9da2 2fbb 0000 0000 52f5 a3ba
00000010: 9206 34ba e9f0 99bc 4e7f 0c3b f4ee 27bc
00000020: b4dd 303b 5be8 9bba 8d4c acbb a151 993a
00000030: ba42 e1bb b847 15bc f02b 57bb 0000 0000
00000040: d097 e9bb efb3 94bc 9e00 90bc b401 823b
00000050: 5615 78bc b0f5 45ba 4bbd 75bc 570f 113b
00000060: 1ef9 0d3b ee14 c33b 8980 6dbc 2d0c 94ba
00000070: ed07 4cbc 6bc7 83bb fcca dbba 0000 0000
00000080: 75a3 41bb c2b1 1bbc ef70 29bc 75a7 c03b
00000090: f95a 91ba 73b4 6abb df4a 35b9 8962 83bb
000000a0: bf03 dd38 6dd0 9239 c337 0bb9 b32c cfb9
000000b0: 1607 4f3b 0000 0000 12c0 70bb 7c38 b0ba
000000c0: 0887 3e3c d58c a1b9 dd7b 073c 1b4c 20ba
000000d0: cb64 27ba 8ba6 b139 d25d 8639 2d77 e6bc
000000e0: 3bfc 6c3b 9e1f c9ba f269 9a3b cc75 81ba
000000f0: 4c98 c33a 2085 7835 0000 0000 8c2b 6fbb
00000100: 2232 543a 530d db3b 5ea0 413b 728a e9bb
00000110: 3afa 22bb 0d7c b4bb 2ad8 ec36 351c 2cbb
00000120: db22 2e3b 333a 71b8 456a e3bb 58fa b73b
00000130: 3661 273b c9c2 43bc 67c6 283a 2b60 5e3a
00000140: e2ca 753a 33ca a4bc 2425 a5bc b7a8 18bb
00000150: 9f7a 623b 3521 84ba aed8 083c d589 bcba
00000160: 0aad f6bb 0000 0000 b7b4 9fba 0000 0000
00000170: ae52 b83b 2c2f f938 c0de 9bba bdb6 0dbb
00000180: 9104 ae39 96de 64bc 0000 0000 f9d3 f03a
00000190: ab6c 153a e5c9 86bc 20e4 26bb 5ec7 593c
000001a0: 5cf4 e73b b673 24bc dd37 b1bb 7371 91ba
000001b0: 0000 0000 43da a3bb 9661 083c 1cfb 393a
000001c0: 64df 33bc 3342 0cbc da3d ba39 e9d2 10bb
000001d0: 262f 0137 0000 0000 8286 263a 1288 11ba
000001e0: 602d 32ba bf1d 68ba 3951 ee3a 04ce e63b
000001f0: adc3 abba cbe4 43bc 0000 0000 bb4d 363c
00000200: bb95 3a3b 1eee a836 0000 0000 1f43 aeba
00000210: f28b ec3b 5207 443b 4e02 8d3b 756e 583b
00000220: 7a9b 7e3b f504 6bb9 eacc a03b 35ee 76ba
00000230: 3033 523a 984e d93b 2ff8 8cbb 0000 0000
00000240: 2616 0f3c ff23 c73b 8819 153c 231b b73a
00000250: 4955 343b f766 03ba fd31 f33b 319a 5f3b
00000260: 326d 173b 3804 8839 b820 003c 82a0 a939
00000270: 6b2f 34ba 185e 1f3b eccf 6b3b 0000 0000
00000280: f96b 5f3b 1b6c c03b 2992 90bb 9d77 20bb
00000290: 3018 0e3a c7b6 b83a 035d b03a 4e8d 9b3a
000002a0: 0000 0000 69e3 e23b 5e97 8bb8 c035 2bbb
000002b0: 17be e639 0000 0000 c030 9b3b d410 533a
000002c0: e546 a03b 0e13 5336 0262 ac3b d627 183b
000002d0: 9d29 0eba 5a42 0ebb 0000 0000 0207 143c
000002e0: 53d4 483b 7ee2 a1b9 4843 883b 8ce5 ecba
000002f0: b4f6 ab3b 0000 0000 0000 0000 3164 023b
00000300: c3e9 0cba 4b08 d9ba 8b72 a6ba 855a d23b
00000310: 05f4 de3b 3892 e139 0000 0000 92be 38bb
00000320: cd12 b739 5593 fab6 0ca7 2b3c 58dc c039
00000330: f241 c639 2cc9 fa3a 2545 19ba 6cf9 513b
00000340: 12ec 133b 97e7 aa3a fb24 de3b 1890 cdba
00000350: bf02 5bbb 2c39 3cb9 59d5 8d3b 9f6b 9f3b
00000360: 1945 163c 0000 0000 d2b4 8fb9 0000 0000
00000370: 2192 17bb 6f7b 433b 27b5 083b 72ac 633b
00000380: def2 63b9 baf7 cc3b 0000 0000 0000 0000
00000390: 8eda 993a a43f 513c 43cb 3c39 eed0 f6ba
000003a0: 2e1f dc3a ea3e 983b c02e 9b3b 8d23 fdb8
000003b0: 0000 0000 5065 d139 a24a faba 04b5 b03b
000003c0: 01e4 dd3b a7b2 5d39 4823 6dba e3c2 19b9
000003d0: 8dfd 29b7 2af4 9db5 4c75 6fb7 6ad3 acb6
000003e0: 1ea0 bf3b 082e 16bb a73c 7b39 2afe 123b
000003f0: 134f ad3a 099d 183c 0000 0000 bad4 df3a
0.00025989648 -0.0026799806 0.0 -0.0012509024 -0.0006867434 -0.018791633 0.0021438184 -0.010249842
0.0026987614 -0.0011894809 -0.005258149 0.0011697301 -0.0068744095 -0.009111337 -0.0032832585 0.0
-0.007128693 -0.018152205 -0.01757842 0.003967488 -0.015141806 -0.0007551564 -0.014998744 0.0022134387
0.0021663378 0.0059534227 -0.014495977 -0.0011295133 -0.0124530615 -0.004021575 -0.0016768868 0.0
-0.002954689 -0.00950283 -0.010341867 0.0058793374 -0.0011089734 -0.0035813123 -0.00017289397 -0.004009549
0.00010538799 0.0002800258 -0.00013276846 -0.0003951542 0.0031589917 0.0 -0.0036735577 -0.0013444568
0.011628874 -0.0003081324 0.008269277 -0.0006114856 -0.0006385564 0.00033884155 0.00025628373 -0.028133
0.0036161083 -0.0015344506 0.0047123367 -0.0009877025 0.0014922707 9.258092e-07 0.0 -0.0036494462
0.00080946286 0.006684938 0.002954505 -0.0071270997 -0.0024868385 -0.005507952 7.058513e-06 -0.002626193
0.0026571068 -5.751308e-05 -0.0069401585 0.00561456 0.002554012 -0.011948296 0.00064382557 0.0008482958
0.000937624 -0.020115947 -0.020159312 -0.0023293921 0.003455795 -0.0010080697 0.008352442 -0.0014384339
-0.007527952 0.0 -0.0012184595 0.0 0.0056250906 0.00011882032 -0.0011891946 -0.0021623813
0.00033191268 -0.013969084 0.0 0.001837372 0.0005700092 -0.016453693 -0.0025465563 0.013292162
0.0070786905 -0.010037353 -0.0054082708 -0.0011096433 0.0 -0.005000384 0.008324048 0.0007094608
-0.010978553 -0.008560705 0.00035522768 -0.0022098368 7.699977e-06 0.0 0.00063524407 -0.0005551587
-0.00067969225 -0.000885453 0.0018182165 0.007043602 -0.001310458 -0.011956404 0.0 0.011126931
0.0028470594 5.0345107e-06 0.0 -0.001329515 0.007218831 0.002991159 0.0043032533 0.0033024822
0.0038849995 -0.00022413193 0.00490724 -0.0009419651 0.0008018492 0.0066316836 -0.0043020467 0.0
0.008733308 0.006077289 0.009100325 0.0013969879 0.0027516654 -0.00050125964 0.0074217306 0.0034119005
0.0023105857 0.00025943085 0.007820301 0.0003235378 -0.0006873521 0.002431756 0.0035982085 0.0
0.0034091456 0.005872262 -0.004411955 -0.0024485358 0.00054204743 0.0014092558 0.0013455454 0.0011867674
0.0 0.006924082 -6.656231e-05 -0.0026124567 0.00044010647 0.0 0.004736036 0.0008051519
0.004891264 3.1452541e-06 0.005260707 0.0023217103 -0.0005423071 -0.002170703 0.0 0.009034874
0.0030644133 -0.00030877063 0.004158411 -0.0018073781 0.005247915 0.0 0.0 0.0019896145
-0.00053754094 -0.0016558258 -0.0012698931 0.006419482 0.0068039917 0.00043024286 0.0 -0.002818976
0.00034918488 -7.4677323e-06 0.010476839 0.00036785263 0.00037814636 0.001913344 -0.000584679 0.0032039536
0.0022571129 0.001303899 0.0067793108 -0.0015683202 -0.0033418385 -0.00017950375 0.0043284115 0.0048651244
0.009171748 0.0 -0.00027409807 0.0 -0.002312787 0.002982821 0.0020859928 0.0034740237
-0.00021738882 0.0062551172 0.0 0.0 0.0011738108 0.012771521 0.00018004798 -0.0018830576
0.001679396 0.004646172 0.0047357976 -0.00012070602 0.0 0.0003993907 -0.0019095729 0.0053926725
0.006771565 0.00021142756 -0.000904609 -0.00014663818 -1.0132219e-05 -1.1768473e-06 -1.427282e-05 -5.1506113e-06
0.005847945 -0.002291562 0.0002395982 0.0022429326 0.0013222418 0.009314784 0.0 0.0017076947

head.2.bias f4 [36]
00000000: da3e f3bc c0f8 db3c bab4 3c3c 8e67 5dbd
00000010: d40f d33c e80b cdbc 7768 0d3d e7c6 c33b
00000020: 4d33 16bd e053 b03c 8961 ad3b 3368 00bd
00000030: e208 48bd 5edd 443c bf39 093b ed5e 39bd
00000040: 4bea 28bd df4e 3dbd 8bc6 bf3c ae11 a8bb
00000050: bdf1 783c 2a75 883b ec89 7bbb dc5c f33b
00000060: 7dac 36bc 3aee be3c 02e5 20bd 9e25 fcbc
00000070: 3c58 da3a f58e c03c e7d9 2e3c 9a39 64bc
00000080: cbfd 273c 463c b93c 2e02 2f3d 8b27 e6bb
-0.029693056 0.026852012 0.011517698 -0.054053836 0.025764383 -0.025030091 0.034523454 0.0059746387
-0.036670018 0.02152437 0.005291168 -0.031349372 -0.048836596 0.012015669 0.002093896 -0.045256544
-0.041239064 -0.046217795 0.023410102 -0.0051290607 0.015194354 0.0041643577 -0.0038381768 0.007426841
-0.011149523 0.023306955 -0.0392809 -0.030779656 0.0016658376 0.023505667 0.010672069 -0.013929749
0.01025338 0.022611748 0.042726688 -0.007023757
