apps/ai/skpt/agent_CNN2_1_qnet.pt (torch, 212595 bytes, 12 tensors)

board_tower.0.weight f4 [16, 2, 3, 3]
0	0x3e8f9fa4	0.28051484
1	0x3e337880	0.17526436
2	0x3cbd0adc	0.023076467
3	0x3d9e8416	0.07740037
4	0xbe102e12	-0.14080074
5	0xbdb2ddcb	-0.0873371
6	0x3da2cc56	0.0794913
7	0x3e582f17	0.21111713
8	0x3cd91430	0.026498884
9	0x3e42ffa8	0.19042838
10	0x3d6a614f	0.057221707
11	0xbd77371b	-0.060355287
12	0xbe4e62e3	-0.2015491
13	0x3d7a3b56	0.061091743
14	0xbdcfef93	-0.10153117
15	0x3d8c6849	0.06855828
16	0xbe478869	-0.1948563
17	0xbe6ddfb9	-0.23229875
18	0x3d84656a	0.06464656
19	0xbe448473	-0.1919115
20	0x3dffa06c	0.1248177
21	0x3e615256	0.22004065
22	0x3d4d63d9	0.05014405
23	0xbe6611c3	-0.22467713
24	0xbe417173	-0.18890934
25	0x3d4271e8	0.04747191
26	0xbe64e1b6	-0.22351727
27	0xbdfea6d4	-0.12434164
28	0xbe65d100	-0.22443008
29	0x3d9feb39	0.07808537
30	0xbdef549c	-0.1168606
31	0xbc97806b	-0.018493852
32	0xbde31413	-0.11087813
33	0xbd2914a7	-0.04127946
34	0xbe197ec5	-0.14989765
35	0x3e4ea8cf	0.20181583
36	0xbd3c2152	-0.045930214
37	0x3e06ea47	0.13175307
38	0xbe40f33d	-0.18842788
39	0x3e9e8ec6	0.30968302
40	0x3da55656	0.08073108
41	0x3df5695f	0.119829886
42	0x3e6274dd	0.22114892
43	0xbde03e1b	-0.10949346
44	0x3d90260d	0.070385076
45	0x3e58f665	0.21187742
46	0xbcc38027	-0.023864819
47	0x3e106f6e	0.14105007
48	0x3e8d45b1	0.27592233
49	0x3e5cc1af	0.2155826
50	0xbe66c44a	-0.22535816
51	0x3e884e8e	0.26622432
52	0xbe1822ab	-0.14856975
53	0x3e30f895	0.17282327
54	0xbd672200	-0.05642891
55	0xbe59694e	-0.21231577
56	0x3e6d4a45	0.23172863
57	0xbc119cb5	-0.0088874595
58	0x3ea471e2	0.32118136
59	0xbd90c332	-0.070684806
60	0x3d61a7b8	0.05509159
61	0xbd060728	-0.03272167
62	0xbe534abb	-0.20633976
63	0xbe2f84a9	-0.1714045
64	0xbe1d2977	-0.15347849
65	0x3e51d84e	0.2049267
66	0xbd58e094	-0.05294855
67	0x3e0a0a26	0.13480434
68	0x3e72b828	0.23703063
69	0x3caa36dc	0.020778112
70	0x3c99196e	0.018688884
71	0xbe6d41de	-0.23169658
72	0xbdf26b65	-0.1183689
73	0x3eac7618	0.33683848
74	0x3e06ace8	0.13151896
75	0x3e1873de	0.1488795
76	0x3e4e2361	0.20130683
77	0x3ea38ed4	0.31944907
78	0xbdd9c24a	-0.10632761
79	0x3e181a24	0.14853722
80	0x3d9c6ca3	0.07637908
81	0xbe453812	-0.1925967
82	0xbdff917f	-0.12478923
83	0xbe93683c	-0.28790462
84	0xbb8f0f49	-0.004365836
85	0x3c9a37da	0.01882546
86	0x3d3403bd	0.043948878
87	0x3e0e22d1	0.13880469
88	0x3c63c97e	0.01390302
89	0xbe2d1b48	-0.16904938
90	0xbd667034	-0.05625935
91	0xbdfe864c	-0.12427959
92	0xbda6b939	-0.08140797
93	0x3e60ec2d	0.21965094
94	0xbe604c35	-0.2190407
95	0x3e9211c6	0.28529185
96	0x3e813c74	0.25241435
97	0x3e225d53	0.15855913
98	0x3cc8770d	0.02447083
99	0xbc228e2e	-0.009921594
100	0x3cdbbbd4	0.026822962
101	0x3e683680	0.2267704
102	0xbe55756a	-0.20845571
103	0x3cf36a69	0.029713826
104	0x3e2f9a54	0.17148715
105	0xbda312ee	-0.07962595
106	0xbe17f4db	-0.14839499
107	0xbd0e682b	-0.03476731
108	0xbc8119da	-0.015759397
109	0x3e846354	0.2585703
110	0x3da638a4	0.08116272
111	0x3dc99852	0.09843506
112	0x3e11709b	0.14203112
113	0x3d84c92c	0.06483683
114	0x3db0315e	0.08603166
115	0xbe1c1ea7	-0.15246068
116	0x3d375b4d	0.044764806
117	0xbe18564c	-0.1487667
118	0x3e134f02	0.14385608
119	0xbde98107	-0.11401563
120	0xbde18021	-0.11010767
121	0xbe258cf2	-0.16167048
122	0x3e21fb54	0.1581853
123	0xbbbf8ce0	-0.005845651
124	0xbe34eb42	-0.17667869
125	0xbe773612	-0.2414172
126	0x3e699c98	0.22813642
127	0xbdf83f0d	-0.12121401
128	0xbe12716f	-0.14301084
129	0xbde9bdc7	-0.1141315
130	0xbde98ff1	-0.11404408
131	0x3e894e95	0.26817766
132	0x3e60404b	0.21899526
133	0xbe1b7cf8	-0.1518439
134	0x3cbf0f29	0.023322659
135	0x3d4c57c0	0.049888372
136	0x3db34db4	0.08755055
137	0xbe18103d	-0.14849944
138	0xbd077136	-0.03306695
139	0x3e702592	0.23451832
140	0x3d72be8e	0.05926376
141	0x3e7314b2	0.23738363
142	0x3e4c7cfb	0.19969551
143	0x3dd5d2de	0.1044061
144	0x3da6348e	0.08115493
145	0xbd0162e9	-0.03158847
146	0xbd2431a3	-0.0400864
147	0x3cf54efb	0.029944887
148	0xbd85925b	-0.06522056
149	0x3d2156f4	0.039389566
150	0x3de7e141	0.11322261
151	0x3e1d3952	0.15353897
152	0xbe3768ab	-0.17911021
153	0x3dd75f0b	0.10516175
154	0xbcdfe376	-0.027330142
155	0xbd6270d1	-0.05528337
156	0x3d8045a5	0.06263284
157	0xbc742170	-0.01490055
158	0x3e4ef1f4	0.20209485
159	0x3d8ace59	0.06777639
160	0xbe1aa429	-0.15101685
161	0x3d310e24	0.043226376
162	0xbe0bde6e	-0.13659069
163	0x3d7eca16	0.062204443
164	0x3dc006ab	0.09376272
165	0xbe4c4048	-0.19946396
166	0xbe93a18c	-0.28834188
167	0x3e8dbb46	0.2768194
168	0x3dfb11a2	0.122592226
169	0xbddb5943	-0.10710385
170	0xbd80d47f	-0.062905304
171	0xbe3bdfcf	-0.18347095
172	0x3e7bf912	0.24606732
173	0xbd9cba7a	-0.07652755
174	0x3d9573e9	0.07297499
175	0x3d9da6b2	0.0769781
176	0x3e4ad83d	0.19809051
177	0x3d20619b	0.039155584
178	0x3e6001bb	0.2187566
179	0x3e74d9bf	0.23911189
180	0xbdf46003	-0.11932375
181	0x3ce3d9a7	0.027813746
182	0x3dce9f05	0.10088924
183	0x3d94959d	0.07255099
184	0x3e2560a5	0.16150148
185	0xbceee647	-0.02916254
186	0xbdb82948	-0.08992249
187	0xbe680086	-0.2265645
188	0xbe3029d6	-0.17203459
189	0x3b2c9506	0.0026333942
190	0xbd13e86b	-0.036110323
191	0x3e7d46e2	0.24734071
192	0x3d60015a	0.05468879
193	0xbd9af5d0	-0.07566416
194	0xbc030649	-0.007997104
195	0x3e3380bc	0.17529577
196	0xbe3cb2f6	-0.18427643
197	0x3d3a31f8	0.04545781
198	0x3e61988b	0.22030847
199	0xbe266fbf	-0.16253565
200	0x3d97c04f	0.07409727
201	0x3dd7da74	0.105397135
202	0x3e6d3883	0.23166089
203	0x3d3bbb71	0.045833055
204	0xbe01a49a	-0.12660447
205	0x3be022e8	0.0068400986
206	0xbe0eb624	-0.13936669
207	0x3d7358f5	0.059411008
208	0x3dd42957	0.103594474
209	0xbe21b98b	-0.15793435
210	0x3e1981b7	0.14990889
211	0xbe4cfb5f	-0.20017765
212	0x3e687e6f	0.2270448
213	0xbd9ef81e	-0.07762168
214	0xbe662f53	-0.2247899
215	0x3de3297f	0.11091899
216	0x3e832366	0.25612944
217	0xbe0bb980	-0.13644981
218	0x3db387e9	0.08766157
219	0x3e6e475b	0.23269407
220	0xbcd773b4	-0.026300289
221	0x3d57bc93	0.052670073
222	0xbd99f426	-0.07517271
223	0xbe0f2baa	-0.139815
224	0xbdc5a043	-0.09649708
225	0xbe1ccb57	-0.15311943
226	0x3e169a6f	0.14707349
227	0x3c32bef5	0.0109097855
228	0x3d95f81a	0.07322712
229	0xbe8234bb	-0.25430855
230	0x3e116b71	0.14201142
231	0x3e7ca73b	0.24673168
232	0xbe2ab04a	-0.16668811
233	0x3d1a9059	0.037735317
234	0x3dc7cb5a	0.09755583
235	0x3cee3070	0.029075831
236	0x3def807d	0.11694429
237	0xbc1502fb	-0.009094949
238	0x3c3cc0dd	0.011520592
239	0xbd87ff0c	-0.06640443
240	0xbcee57dd	-0.02909463
241	0xbd1d8fda	-0.038467266
242	0xbe4d3d29	-0.20042862
243	0x3d70c8df	0.058785316
244	0xbdcda2b4	-0.10040799
245	0x3e5bfde5	0.21483572
246	0xbe528f71	-0.20562531
247	0xbd952591	-0.07282556
248	0xbe710960	-0.23538733
249	0xbe353344	-0.17695338
250	0xbe71d254	-0.2361539
251	0xbd8b3e2d	-0.067989685
252	0xbe292a7e	-0.16520116
253	0x3d27bdd0	0.040952504
254	0x3e6026fe	0.21889874
255	0xbe0c4620	-0.13698626

board_tower.0.bias f4 [16]
0	0x3e7da451	0.24769713
1	0xbda8196f	-0.08207976
2	0xbe576bce	-0.21037218
3	0x3e59a0c6	0.21252736
4	0xbeba6b47	-0.3640997
5	0xbe11da0f	-0.14243339
6	0xbd4e106e	-0.050308637
7	0xbb0b8be0	-0.0021293089
8	0x3d9d571b	0.0768263
9	0xbc89cc59	-0.016821073
10	0x3e32a20c	0.17444628
11	0xbdb9c51d	-0.090707995
12	0xbe1c0eb0	-0.15239978
13	0xbde4f4d6	-0.11179511
14	0x3dc0281f	0.093826525
15	0x3e940425	0.28909412

board_tower.2.weight f4 [32, 16, 3, 3]
0	0xbd1480cc	-0.036255643
1	0x3d198180	0.037477016
2	0x3d20ce6e	0.039259367
3	0x3d37cd56	0.044873558
4	0x3d6af739	0.057364676
5	0x3d285ff3	0.04110713
6	0x3c71d303	0.014759782
7	0x3caab715	0.020839253
8	0x3d91c402	0.07117464
9	0x3c815ed5	0.01579229
10	0xbd91e1b4	-0.071231276
11	0xbc25163a	-0.0100761
12	0xbd38c269	-0.04510728
13	0xbd8b36eb	-0.06797584
14	0x3d868913	0.065691136
15	0x3cc15f20	0.02360493
16	0x3c85de61	0.01634139
17	0x3c98ee0a	0.018668193
18	0xbd8feb75	-0.07027332
19	0xbd57a85c	-0.052650794
20	0x3a720050	0.0009231614
21	0x3c44e189	0.012016662
22	0x3d4e769e	0.05040609
23	0x3d7d0649	0.061773572
24	0x3c97e463	0.01854152
25	0x3d7a3ac1	0.06109119
26	0xbda61137	-0.08108752
27	0x3c15b2e7	0.009136892
28	0xbd3856a0	-0.045004487
29	0x3cef0237	0.02917586
30	0xbd81956e	-0.063273296
31	0x3d2de53d	0.042454947
32	0x3d850dea	0.064967945
33	0x3d3273a4	0.043567315
34	0xbd991a58	-0.07475728
35	0xbdb5e341	-0.08881236
36	0x3db3a8f9	0.08772463
37	0xbc18c194	-0.009323496
38	0xbc6ac50e	-0.014329208
39	0xbdde16c5	-0.10844187
40	0xbcfa7903	-0.030575281
41	0x3da50e5f	0.08059382
42	0x3d8d89bd	0.06911037
43	0x3c77c6d8	0.015123092
44	0xbdb7f68a	-0.089825705
45	0x3cc6b480	0.024255991
46	0xbd87f8d1	-0.06639255
47	0x3b566834	0.0032715918
48	0x3c8265c4	0.015917666
49	0x3ca5b972	0.020230029
50	0xbd3c2996	-0.045938097
51	0x3bd42f0c	0.006475335
52	0xbd92e155	-0.07171885
53	0x3c633f32	0.013870047
54	0xbcf63056	-0.030052345
55	0xbda3e3fa	-0.080024675
56	0x3ca0f2e0	0.019647062
57	0xbd46a9bb	-0.04850171
58	0xbd89ef7a	-0.0673513
59	0xbd5070fd	-0.050889004
60	0xbdb341d5	-0.08752791
61	0x3d9f988a	0.077927664
62	0x3d1d19f0	0.038354814
63	0xbda8a5c1	-0.0823474
64	0xbc42d5be	-0.01189178
65	0x3d90633a	0.07050176
66	0xbd2e7967	-0.042596247
67	0xbd899791	-0.06718362
68	0xbc578898	-0.013155125
69	0xbdac82ea	-0.084234074
70	0x3d5a9f91	0.05337483
71	0xbdd52087	-0.10406595
72	0xbd910dfb	-0.07082745
73	0x3d3d00ac	0.04614322
74	0x3bffd3bd	0.0078072236
75	0x3da884c0	0.08228445
76	0x3db45441	0.08805133
77	0x3da5cbcf	0.08095514
78	0x3cdbfcc9	0.026853936
79	0xbbd130ee	-0.0063840067
80	0xbd746089	-0.059662376
81	0x3d4a276b	0.049354
82	0x3da47149	0.0802942
83	0xbd8672f1	-0.06564892
84	0xbc11fb0b	-0.008909951
85	0x3d67542b	0.056476753
86	0x3c570928	0.013124742
87	0x3d88c4ae	0.06678139
88	0x3d6c26f5	0.05765434
89	0xbda02586	-0.07819657
90	0xbda8e58f	-0.0824691
91	0xbd0f7946	-0.035027765
92	0x3d8429da	0.06453295
93	0x3d1f8061	0.03894079
94	0x3db989be	0.09059475
95	0x3d7710e1	0.06031883
96	0xbd5c2ab3	-0.05375166
97	0xbce1588e	-0.027508046
98	0xbd6fffc7	-0.058593538
99	0x3da0918a	0.078402594
100	0xbc828eae	-0.015937176
101	0x3c581aed	0.013190013
102	0x3d3d390c	0.046196982
103	0x3d65e4f7	0.05612656
104	0xbc904218	-0.017609641
105	0x3c0e2e95	0.008678098
106	0x3d22764c	0.039663598
107	0x3d31998a	0.043359317
108	0xbcab063e	-0.020877
109	0xbd815efb	-0.06316944
110	0xbd450776	-0.04810282
111	0xbd80636d	-0.06268964
112	0xbd9c2b95	-0.076255
113	0x3c17c8ee	0.009264214
114	0xbdb2f878	-0.08738798
115	0x3c84b1ae	0.016198006
116	0x3cecabfb	0.0288906
117	0xbaedf401	-0.0018154384
118	0x3d8a5003	0.06753542
119	0xbd9c6c9f	-0.07637905
120	0x3d210000	0.03930664
121	0x3d5c0ea8	0.053724915
122	0x3d8fdb64	0.07024267
123	0x3d054c08	0.032543212
124	0xbbc94abc	-0.0061429422
125	0x3d967fa6	0.07348566
126	0xbd296cfc	-0.0413637
127	0x3d1a4055	0.037659008
128	0xbcfe968d	-0.031077648
129	0x3ca5039a	0.020143319
130	0xbd9b82c9	-0.07593305
131	0xbd947ba9	-0.07250149
132	0x3c76f370	0.015072688
133	0x3d886379	0.06659598
134	0x3c6f1a71	0.0145937065
135	0x3d71b789	0.059012923
136	0x3d57efcd	0.052718926
137	0xbd908675	-0.07056896
138	0x3d8d6e3a	0.0690579
139	0x3c83c176	0.01608346
140	0xbdbb8832	-0.091568366
141	0xbdbe7194	-0.09299007
142	0x3da840a0	0.08215451
143	0x3d60b37b	0.054858666
144	0xbdaf8829	-0.08570892
145	0x3d876a01	0.066120155
146	0x3d921379	0.0713262
147	0x3da29a4c	0.07939586
148	0xbb11424f	-0.0022164767
149	0xb99ea1c8	-0.00030256645
150	0xbd4b0a39	-0.049570296
151	0x3d721eee	0.059111528
152	0x3d897baa	0.0671304
153	0x3cde3c4a	0.027128357
154	0x3d857bdb	0.06517764
155	0x3d853d1b	0.065057956
156	0xbda05a98	-0.078297794
157	0xbd0fe640	-0.035131693
158	0x3d96c447	0.07361656
159	0x3c447ae5	0.011992191
160	0xbd9f0463	-0.077645086
161	0x3d10a079	0.03530929
162	0xbd628125	-0.055298943
163	0xbd620eb2	-0.055189796
164	0xbc8e17fa	-0.017345417
165	0x3d7db7d1	0.06194288
166	0xbdaaa243	-0.0833173
167	0x3dd9bcaa	0.10631688
168	0x3daf1401	0.08548737
169	0xbd21edbf	-0.039533373
170	0xbd3bc8b3	-0.0458457
171	0x3d183a7a	0.037165143
172	0xbd6da779	-0.058021042
173	0x3d51cb68	0.051219374
174	0xbcfdf4ba	-0.031000484
175	0xbd8fae99	-0.07015724
176	0xba9341c6	-0.0011234812
177	0x3d9e0eae	0.07717644
178	0x3d814b48	0.06313187
179	0x3b88fb21	0.0041803275
180	0x3ce787eb	0.028263053
181	0xbc8b4227	-0.016999317
182	0x3d81287b	0.06306549
183	0x3d1ef6cd	0.038809586
184	0x3e0d1b43	0.13779931
185	0x3d04ecc8	0.032452375
186	0x3d8eafb5	0.06967107
187	0x3cf721de	0.030167516
188	0xbd4c6359	-0.049899433
189	0x3d3a2b75	0.0454516
190	0xbc685c62	-0.014182182
191	0x3cb040e8	0.021515325
192	0x3d7b4c8c	0.061352298
193	0x3da8bd88	0.08239275
194	0x3bd7f92f	0.0065909843
195	0xbd301ab6	-0.042994224
196	0xbd4c3f77	-0.049865212
197	0x3d7a4c8d	0.06110816
198	0x3d31276e	0.043250494
199	0xbcf10294	-0.029420175
200	0xbda828d4	-0.08210912
201	0x3d902e52	0.07040085
202	0x3ce6b504	0.028162487
203	0xbc81455c	-0.015780143
204	0xbd280986	-0.041024707
205	0x3df4105e	0.11917184
206	0xbb559b9d	-0.0032593973
207	0x3c59d921	0.0132963965
208	0x3d285bad	0.041103054
209	0xbd9088e3	-0.07057359
210	0xbd976da2	-0.07393958
211	0x3d64699b	0.055764776
212	0xbc25dbd8	-0.010123216
213	0x3cf4f33e	0.029901143
214	0x3b86123e	0.00409153
215	0x3d889757	0.06669491
216	0x3d830ecf	0.06399309
217	0xbca6d728	-0.020366266
218	0x3d8228ad	0.063554145
219	0x3d20daf7	0.03927132
220	0x3c258fa0	0.010105044
221	0x3d039b67	0.032130625
222	0xbcb29212	-0.021798167
223	0x3d24258c	0.04007487
224	0x3d8e4dbe	0.06948422
225	0xbc756ff9	-0.01498031
226	0xbc318384	-0.010834578
227	0xbd12c5bd	-0.03583311
228	0xbd4169de	-0.047220103
229	0xbd148c70	-0.036266744
230	0x3d09bf8e	0.033629946
231	0x3dbbe900	0.091753006
232	0x3db8a809	0.09016425
233	0x3d897e26	0.06713514
234	0x3d550248	0.05200413
235	0xbcd4db2d	-0.025983417
236	0x3ca361f5	0.01994417
237	0x3d97b1a4	0.07406929
238	0xbd849320	-0.06473374
239	0x3c9c5b3c	0.019086473
240	0xbd91acfe	-0.07113074
241	0x3daa2d3c	0.08309409
242	0x3d0a4601	0.033758167
243	0x3dc5ab89	0.09651858
244	0xbda92a95	-0.08260075
245	0x3becffef	0.007232658
246	0x3d5fa919	0.054604623
247	0x3daa3823	0.083114885
248	0x3d3b6542	0.045750864
249	0xbd95e9f1	-0.073200114
250	0xbc85b589	-0.016321914
251	0x3cd767e1	0.02629465
252	0x3d8c435d	0.06848786
253	0xbd798133	-0.06091423
254	0xbc5c5fb4	-0.013450552
255	0x3cbaa30f	0.02278283

board_tower.2.bias f4 [32]
0	0x3bec124d	0.00720433
1	0xbdcf42d1	-0.10120166
2	0xbd62b466	-0.055347823
3	0xbd837ec0	-0.0642066
4	0x3d758eaf	0.059950527
5	0x3afe945b	0.0019422875
6	0x3d84faed	0.06493173
7	0x3d69aba2	0.057048447
8	0xbd21afda	-0.039474346
9	0x3db52a4d	0.08845959
10	0xbd706924	-0.05869402
11	0x3dca1060	0.098664045
12	0x3d016761	0.03159273
13	0x3d1726d8	0.03690228
14	0xbb1f1405	-0.0024273407
15	0xbd43f4c0	-0.047840834
16	0xbdb112e6	-0.08646183
17	0x3daa5bbc	0.08318278
18	0x3dbccc6c	0.09218678
19	0x3b7922da	0.0038015158
20	0xbc9d0fd5	-0.019172588
21	0x3dccb2ef	0.099950664
22	0xbb88d5ef	-0.0041758935
23	0x3db27ff8	0.08715814
24	0xbe445ab1	-0.19175221
25	0xbdbb1dea	-0.09136565
26	0x3d0161f7	0.031587567
27	0xbd854c6d	-0.06508718
28	0xbd64faff	-0.05590343
29	0xbd672988	-0.05643609
30	0xbdf08e32	-0.117458716
31	0x3e17f4ec	0.14839524

hand_tower.0.weight f4 [32, 3]
0	0xbd302bd2	-0.04301054
1	0x3ca21047	0.019783152
2	0xbc90a88d	-0.017658496
3	0x3e3eaa84	0.18619734
4	0x3eda2749	0.42608097
5	0x3d0d7f42	0.03454519
6	0x3eacf1b0	0.33778143
7	0xbe36092c	-0.17776936
8	0xbf131ee8	-0.57469034
9	0x3e9293ae	0.28628296
10	0xbe1d2c1e	-0.1534886
11	0xbed919f2	-0.42402607
12	0x3f024a72	0.50894845
13	0xbe610b96	-0.21977076
14	0xbe512562	-0.20424417
15	0x3f0ea4e4	0.55720353
16	0xbd696ac8	-0.0569866
17	0x3f1ba432	0.6079742
18	0xbe4a8d87	-0.19780551
19	0x3f03af5b	0.51439446
20	0xbeccc4cf	-0.39993903
21	0xbe54ccc0	-0.20781231
22	0xbee221fe	-0.4416656
23	0x3eef000b	0.4667972
24	0xbc63799f	-0.013883977
25	0x3eeaae08	0.458359
26	0xbdc92c3b	-0.098228894
27	0x3e5aaa6d	0.21354075
28	0x3ea2cb9f	0.31795976
29	0x3e6baf57	0.23016106
30	0xbed0299b	-0.40656742
31	0x3f0308cf	0.51185316
32	0xbe8b347b	-0.27188477
33	0x3e04ccb4	0.12968713
34	0xbea93cbe	-0.33054155
35	0x3e012b5c	0.12614197
36	0x3ed2788c	0.41107595
37	0x3f0712ce	0.5276307
38	0x3de020ba	0.10943742
39	0xbe4e8ca4	-0.20170838
40	0xbe8add10	-0.27121782
41	0xbd315bb0	-0.04330033
42	0xbf1476a0	-0.5799351
43	0xbeecb8f7	-0.46234867
44	0x3e55559d	0.2083344
45	0xbee0a335	-0.43874517
46	0xbdee10bc	-0.116242856
47	0x3da48b38	0.08034366
48	0xbf087b1c	-0.5331285
49	0xbf041db2	-0.5160781
50	0xbd600680	-0.0546937
51	0x3f082940	0.5318794
52	0xbe5a997a	-0.21347609
53	0xbedf5e49	-0.4362662
54	0xbe9f9825	-0.31170765
55	0x3ec3fe66	0.38280028
56	0xbeab5028	-0.33459592
57	0x3e5c4904	0.21512228
58	0x3dc312c7	0.09525066
59	0xbdd6e0fb	-0.1049213
60	0xbdbe108c	-0.092805
61	0xbe073d02	-0.13206866
62	0xbe6a1e42	-0.22863105
63	0xbe3281a6	-0.1743227
64	0x3dae04c1	0.084970005
65	0x3f1f8140	0.62306595
66	0xbb3ac500	-0.0028498769
67	0x3e2d71bc	0.16937917
68	0xbef83135	-0.48475042
69	0x3dc1a5f0	0.09455478
70	0x3de8e6c8	0.11372143
71	0xbe2595fe	-0.16170499
72	0xbec2d43d	-0.3805255
73	0xbd735125	-0.059403557
74	0x3ec60016	0.3867194
75	0xbf07845d	-0.52936345
76	0x3f01265e	0.5044917
77	0xbec156ab	-0.37761435
78	0x3dc8dc83	0.09807684
79	0x3efd6654	0.49492133
80	0x3f20b7ce	0.62780464
81	0x3ea37fa2	0.31933314
82	0xbed39d40	-0.4133091
83	0xbe84783d	-0.25872985
84	0xbe0a77c6	-0.13522252
85	0x3e9ecbca	0.31014854
86	0xbee246e0	-0.44194698
87	0x3f11e0ac	0.5698345
88	0xbe5ac396	-0.21363673
89	0xbe8bc793	-0.273007
90	0xbf1101c1	-0.566433
91	0x3ef16488	0.47147012
92	0x3da7e6e0	0.08198333
93	0x3e4f122e	0.20221779
94	0xbec5b3ed	-0.38613835
95	0x3ea28335	0.31740728

hand_tower.0.bias f4 [32]
0	0x3e9a92ac	0.30190027
1	0x3eb923e2	0.3616019
2	0xbedd8314	-0.43264067
3	0xbd40c930	-0.047066867
4	0x3e27639f	0.16346596
5	0x3dfe62d7	0.12421196
6	0xbe85246b	-0.26004347
7	0x3e024926	0.12723216
8	0x3ef8f1fe	0.48622125
9	0x3f1339bb	0.57509965
10	0xbe979c4e	-0.2961144
11	0xbef8455e	-0.48490423
12	0xbdc246d9	-0.09486169
13	0xbe5963b2	-0.21229437
14	0x3e87ec09	0.26547268
15	0xbe1d321c	-0.15351146
16	0x3e9e0100	0.30860138
17	0xbeb866b6	-0.36015862
18	0x3d4ab1f0	0.0494861
19	0xbb6fda23	-0.0036598525
20	0x3df54a88	0.11977106
21	0xbe1226db	-0.14272635
22	0xbeb26f5c	-0.34850585
23	0xbe96906d	-0.29407063
24	0xbef56cae	-0.4793448
25	0xbec8253a	-0.39090902
26	0x3f00bd1f	0.50288576
27	0x3e0688a4	0.13138062
28	0x3e7486e8	0.23879588
29	0xbec578a5	-0.38568607
30	0x3f097a7d	0.5370253
31	0x3de92c83	0.11385443

hand_tower.2.weight f4 [32, 32]
0	0xbdc8b5a2	-0.09800269
1	0xbd51cee2	-0.05122269
2	0x3c8860e8	0.016647771
3	0x3c0a3210	0.008434787
4	0x3d49c5e9	0.049261007
5	0xbd19f919	-0.037591074
6	0x3e238316	0.15967974
7	0x3dc1f38a	0.094702795
8	0xbd8b7221	-0.06808878
9	0x3d3b0c97	0.045666303
10	0xbe2ffaa6	-0.17185459
11	0x3e2fd829	0.17172302
12	0xbbdffe14	-0.0068357084
13	0x3d4bbf84	0.04974319
14	0x3dc98608	0.098400176
15	0xbd817925	-0.063219346
16	0x3da8739e	0.08225177
17	0xbdce055c	-0.10059616
18	0xbe06fc34	-0.13182145
19	0xbe27042e	-0.16310188
20	0xbdf5f32c	-0.12009272
21	0x3e40d645	0.18831737
22	0xbd7e02c6	-0.062014364
23	0x3d8d73f4	0.06906882
24	0x3db03dd4	0.08605543
25	0xbda25061	-0.07925487
26	0x3e5b988a	0.21444908
27	0x3ca62ab8	0.020284042
28	0xbdb525ff	-0.08845138
29	0x3d8c0656	0.06837146
30	0x3dce8208	0.10083395
31	0x3dfb4f9e	0.12271045
32	0x3e0d6809	0.13809218
33	0x3e1f86ba	0.15578738
34	0xbe2eb70b	-0.17062013
35	0x3d17fdd4	0.037107304
36	0xbde6cb2e	-0.11269222
37	0xbdaed745	-0.08537153
38	0xbda82001	-0.08209229
39	0xbe2626b4	-0.16225702
40	0x3dae6243	0.08514836
41	0x3b88e2c5	0.0041774237
42	0xbb9ddec0	-0.0048178136
43	0x3e29b08b	0.16571252
44	0xbdb2715a	-0.08713026
45	0x3dcb55ea	0.09928496
46	0xbdd8471f	-0.1056044
47	0xbe061ef5	-0.13097747
48	0xbdb9bae9	-0.090688534
49	0x3e2ad289	0.16681875
50	0x3dca5ade	0.09880613
51	0x3dd851b2	0.10562457
52	0x3ca0e058	0.019638225
53	0x3d82c953	0.06386056
54	0x3e118945	0.1421252
55	0x3e0f9b03	0.14023976
56	0xbe0df249	-0.13861956
57	0x3c866d08	0.016409412
58	0x3dc62b83	0.09676268
59	0xbd3ca4a8	-0.046055466
60	0x3d16e4b0	0.036839187
61	0x3d9f7a36	0.07786982
62	0x3e202dd0	0.15642476
63	0x3c223a35	0.009901573
64	0xbda5ed44	-0.081018955
65	0x3dd091fa	0.10184093
66	0x3dd060f6	0.10174744
67	0x3dee069a	0.11622353
68	0xbc9de9b4	-0.019276477
69	0x3d294934	0.041329578
70	0x3d6e623f	0.058199164
71	0x3e0e96d1	0.1392472
72	0x3dc13504	0.0943394
73	0x3dac59ea	0.08415587
74	0xbdd3e37c	-0.103461236
75	0x3d85231c	0.06500837
76	0x3d803e8a	0.062619284
77	0x3e14f277	0.14545618
78	0x3cca5e22	0.02470309
79	0x3d24048c	0.0400434
80	0xbda9aebb	-0.0828528
81	0xbe213f22	-0.1574674
82	0xbe159973	-0.14609317
83	0x3e2d10f2	0.16900995
84	0xbce11ec8	-0.027480498
85	0x3d918924	0.071062356
86	0x3ceaee18	0.028677985
87	0x3df808d6	0.1211106
88	0xbe1d56d2	-0.1536515
89	0xbc484750	-0.0122240335
90	0x3c916308	0.017747417
91	0x3e1ec035	0.15503009
92	0xbdb661e5	-0.08905391
93	0x3d1a57fc	0.037681565
94	0xbdaaad9b	-0.08333894
95	0x3d9d04dd	0.07666943
96	0x3e30356d	0.1720788
97	0xbd28987f	-0.041161057
98	0x3e11bbc9	0.1423179
99	0xbd3240a8	-0.043518692
100	0x3e2cc0d6	0.16870436
101	0x3e3ccc7c	0.1843738
102	0x3c99aec4	0.018760093
103	0xbd7ba115	-0.061432917
104	0xbd94d70b	-0.07267579
105	0xbc6bd749	-0.01439459
106	0x3ccd9a11	0.025097879
107	0x3dcb8596	0.09937589
108	0xbe0aa8e3	-0.13540988
109	0xbdab90c1	-0.08377219
110	0x3d4f1606	0.050558113
111	0x3df2a0de	0.11847089
112	0x3de55c4e	0.11199246
113	0xbdb2666f	-0.08710944
114	0xbe185550	-0.14876294
115	0x3dd42ebb	0.10360476
116	0x3de2efaa	0.110808685
117	0x3e321319	0.17390098
118	0x3db6b78a	0.08921726
119	0xbdad8141	-0.08471919
120	0xbd1cebd0	-0.038310826
121	0xbe05e421	-0.13075306
122	0x3bb16a96	0.0054143174
123	0x3da2825e	0.07935022
124	0xbcd4bfa8	-0.025970295
125	0xbb705500	-0.0036671758
126	0xbd633078	-0.055466145
127	0xbd18abf3	-0.03727336
128	0xbe2a440a	-0.16627517
129	0xbdf9c180	-0.1219511
130	0xbd8eea20	-0.069782495
131	0xbdee6b3a	-0.116415456
132	0xbe112da0	-0.14177561
133	0x3da1edc2	0.07906677
134	0x3df1c096	0.11804311
135	0x3e01999f	0.12656258
136	0x3d0eb928	0.034844548
137	0xbe192f4d	-0.1495945
138	0x3e2ffd43	0.17186455
139	0x3dcd9706	0.10038571
140	0xbe168c8d	-0.14702053
141	0x3bf5a5e0	0.0074965805
142	0xbe00cc48	-0.12577927
143	0x3d99ef56	0.07516353
144	0xbdaa223e	-0.083073124
145	0x3dd9ff9e	0.10644458
146	0x3c007da0	0.007842451
147	0x3d9881ba	0.074466184
148	0x3d7ad498	0.0612379
149	0xbdad5b48	-0.08464676
150	0x3dae2e3e	0.08504914
151	0xbcb38928	-0.021915987
152	0xbdc1130d	-0.09427462
153	0xbdace5b9	-0.084422536
154	0x3e087107	0.13324367
155	0x3e30cf0f	0.17266487
156	0xbd267fc0	-0.040649176
157	0xbdc9e00f	-0.09857189
158	0x3dd58c96	0.10427205
159	0xbd059698	-0.03261432
160	0xbcb77867	-0.02239628
161	0x3e03843c	0.12843412
162	0x3dea0096	0.11425893
163	0xbe256f23	-0.16155677
164	0x3d04b2d6	0.032397114
165	0x3e449054	0.19195682
166	0x3dfc545e	0.12320779
167	0x3c5e6afe	0.013575314
168	0xbdf67f58	-0.12036008
169	0x3dbaf878	0.09129423
170	0x3e20f519	0.15718497
171	0x3e263f17	0.16235004
172	0x3d59c036	0.053161822
173	0xbe18c519	-0.14918937
174	0xbdb26b32	-0.08711852
175	0xbd86a0d9	-0.06573648
176	0x3d801b40	0.062551975
177	0xbd7f4f5c	-0.062331542
178	0x3da029ba	0.07820459
179	0xbcfc2ef5	-0.03078411
180	0x3e11b7a3	0.14230208
181	0x3e12bb52	0.1432927
182	0xbdf0a48e	-0.11750136
183	0x3e24219b	0.16028444
184	0x3deab992	0.11461176
185	0x3da1836e	0.07886396
186	0xbd00ed27	-0.031476166
187	0x3dda5f7a	0.10662742
188	0xbb86e560	-0.004116699
189	0xbda63799	-0.08116073
190	0x3db82bc6	0.08992724
191	0x3e3b518b	0.18292825
192	0xbe1ba8aa	-0.15201059
193	0x3e047f94	0.12939292
194	0x3d9c0ff2	0.07620229
195	0xbd3267f4	-0.04355617
196	0x3dbfd96e	0.09367643
197	0xbc241665	-0.010015105
198	0xbe1a9deb	-0.15099303
199	0xbc62408e	-0.013809336
200	0xbd145f99	-0.03622398
201	0xbc5da406	-0.013527876
202	0x3e1a8a90	0.1509192
203	0x3d76feec	0.060301706
204	0x3cc86983	0.024464374
205	0x3e14b48d	0.14522
206	0x3e00e22f	0.12586282
207	0x3c4cc3f0	0.012497887
208	0x3e19074d	0.14944191
209	0x3c8928d0	0.016743094
210	0xbd23fe68	-0.040037543
211	0x3c50b1c1	0.012737692
212	0x3d73f8cc	0.059563443
213	0x3d56f7bc	0.05248235
214	0x3d03c60c	0.032171294
215	0x3dfce1c6	0.1234775
216	0x3e090521	0.13380863
217	0xbdc73aa6	-0.09727983
218	0xbe0bdf86	-0.13659486
219	0xbdac713a	-0.08420034
220	0xbe285d40	-0.16441822
221	0xbe2c4547	-0.16823302
222	0x3e0a84a3	0.1352716
223	0x3d6e77bd	0.05821966
224	0xbe1aeed7	-0.15130173
225	0x3d1aef78	0.03782603
226	0xbd971962	-0.07377888
227	0x3e299b2d	0.16563101
228	0xbda157cc	-0.07878074
229	0xbe23a1aa	-0.15979639
230	0x3d7abdb8	0.061216086
231	0x3e20ac07	0.15690623
232	0x3e32352d	0.17403097
233	0xbe201376	-0.15632424
234	0x3d6b5c2c	0.05746095
235	0x3c9bb870	0.019008845
236	0x3d9b865e	0.07593988
237	0xbcb6a468	-0.022295192
238	0x3bc5a540	0.006031662
239	0xbdfe5e6c	-0.12420353
240	0xbd76a5ac	-0.06021659
241	0x3e265f59	0.1624731
242	0xbdd9db8b	-0.106375776
243	0x3dc3ff96	0.095702335
244	0xbcb94f90	-0.022620946
245	0xbdd2a191	-0.102847226
246	0xbc9cef98	-0.019157216
247	0x3e2f5939	0.1712388
248	0x3df194a6	0.117959306
249	0x3dba6de6	0.09102993
250	0xbd533d14	-0.05157192
251	0x3d8e1fd0	0.069396615
252	0x3d1bdb68	0.03805104
253	0x3b7c6c00	0.0038516521
254	0x3e06d295	0.13166268
255	0x3b47f6c0	0.0030512065

hand_tower.2.bias f4 [32]
0	0x3e4606cd	0.19338532
1	0xbdbed635	-0.093182005
2	0xbdf4eacd	-0.11958847
3	0x3cfda00c	0.030960105
4	0xbdf1f1ba	-0.11813684
5	0xbd32c8e1	-0.043648604
6	0x3c8190e5	0.015816161
7	0x3db91b92	0.09038462
8	0x3d9ee5ad	0.07758651
9	0x3e128f60	0.14312506
10	0x3c9564f8	0.018236622
11	0xbc4c79c2	-0.012480201
12	0x3e070d41	0.1318865
13	0xbcdd182a	-0.026989061
14	0xbc90765c	-0.017634563
15	0xbcc01e30	-0.023451895
16	0x3e53792d	0.20651694
17	0xbe147726	-0.14498577
18	0x3dc5123e	0.0962262
19	0x3db1e926	0.08687048
20	0xbdde361c	-0.10850164
21	0xbd13c120	-0.03607285
22	0x3e43a38e	0.1910536
23	0xbe025073	-0.12726001
24	0xbe2a1563	-0.16609721
25	0x3df046f2	0.11732282
26	0x3d3f34f0	0.046681345
27	0x3de408aa	0.11134465
28	0x3b084ac0	0.0020796508
29	0x3e42ef87	0.19036685
30	0xbe0cb1e3	-0.13739733
31	0xbda3ab91	-0.07991708

head.0.weight f4 [128, 320]
0	0x3d517fd1	0.051147286
1	0x3c98456c	0.01858779
2	0xbc825f0c	-0.015914463
3	0xbd4a23c8	-0.04935053
4	0x3c87d743	0.016582137
5	0xbb224602	-0.0024760966
6	0x3cbbd8f7	0.022930605
7	0x3c7dbac8	0.015486427
8	0x3d548e16	0.051893316
9	0xbc034998	-0.008013152
10	0xbd1c3268	-0.03813401
11	0x3d1c9a84	0.038233295
12	0xbcced1dd	-0.025246555
13	0x3b137eef	0.0022506078
14	0x3ca5c958	0.02023761
15	0xbd3d4017	-0.0462037
16	0xbd53b7de	-0.05168902
17	0xbcca7236	-0.024712663
18	0x3d468ee4	0.048476115
19	0xbca52b39	-0.020162212
20	0xbce9f410	-0.02855876
21	0xbcf72809	-0.030170457
22	0x3c52fd0e	0.012877716
23	0xbcb18977	-0.021671994
24	0xbcfcb545	-0.030848155
25	0x3cd188ca	0.025577921
26	0x3c98dd91	0.018660339
27	0x3c55f4cd	0.013058853
28	0xbd0fb5ff	-0.035085674
29	0xbcbeffe3	-0.023315376
30	0xbd3b885f	-0.04578435
31	0xbd45caa2	-0.04828895
32	0x3d154ed9	0.036452148
33	0x3bf38653	0.007431784
34	0x3c860cf7	0.016363604
35	0xbcdeb8a0	-0.027187645
36	0xbd50214e	-0.05081301
37	0xbc8264fc	-0.015917294
38	0xbd0ade2e	-0.033903293
39	0xbd59df07	-0.05319121
40	0x3d46316f	0.048386987
41	0xbd0b5ffa	-0.034027077
42	0x3cdf7e1f	0.027281819
43	0xbcaea31d	-0.021318013
44	0x3cb55d25	0.022139141
45	0x3d27b2ce	0.040942006
46	0xbcca1d27	-0.024672104
47	0xbc99122b	-0.018685421
48	0xbb9506b5	-0.0045479187
49	0x3cd6d76b	0.026225766
50	0xbd5f5b01	-0.054530147
51	0xbc41c4a2	-0.011826666
52	0x3c965782	0.018352274
53	0xbd04e828	-0.032447964
54	0x3d07f2af	0.033190425
55	0x3c90a3ba	0.017656196
56	0xbc2651b2	-0.010151314
57	0x3b7680da	0.0037613423
58	0x3cefb71a	0.029262114
59	0x39562745	0.0002042326
60	0x3c75f0f5	0.015011062
61	0x3d0269f1	0.031839315
62	0x3c7a1d1e	0.015265731
63	0x3c162652	0.00916441
64	0xbc002f78	-0.007823817
65	0x3c4b6f6e	0.012416704
66	0xbd6fc746	-0.05853965
67	0xbc8a0d2d	-0.016851986
68	0xbc1b9b64	-0.009497497
69	0x3cc75bc1	0.024335744
70	0x3c65e5b3	0.014031815
71	0xbd4667bc	-0.048438773
72	0x3c6145a7	0.013749517
73	0xbcf6b91e	-0.030117568
74	0x3ce8a6a1	0.028399767
75	0xbcced40a	-0.025247592
76	0x3c5ba3ed	0.013405782
77	0xbd1daba7	-0.03849378
78	0x3d5af449	0.053455625
79	0x3b432de9	0.0029782003
80	0x3d0554ba	0.032551505
81	0xbc81326c	-0.015771113
82	0x3d73b4ee	0.05949872
83	0x3cce1fcd	0.025161648
84	0x3d747736	0.059684
85	0xbd2448f9	-0.040108655
86	0xbd51f641	-0.051260237
87	0x3d3a6239	0.04550383
88	0xbcd7f280	-0.02636075
89	0xbcbdbdf7	-0.023161871
90	0xbbc2b288	-0.0059416927
91	0x3d3e55e0	0.046468616
92	0x3b9c487f	0.0047693844
93	0xbbfd8a24	-0.007737415
94	0xbcba19c3	-0.022717362
95	0x3cfb25d5	0.030657688
96	0xbd65b31f	-0.056079026
97	0x3d45101a	0.04811106
98	0xbc643367	-0.013928271
99	0x3d1c597f	0.038171288
100	0xbcf5ccdf	-0.030004917
101	0x3d681416	0.05665978
102	0xbd014e6b	-0.031568926
103	0xbd517fbd	-0.05114721
104	0x3d13b74c	0.036063477
105	0xbc3066e4	-0.010766719
106	0x3bc6264b	0.0060470453
107	0xbd303588	-0.0430198
108	0x3cef6d9f	0.029227076
109	0x3d13cde9	0.036085043
110	0xbcc1f359	-0.023675608
111	0xbd0783a1	-0.033084515
112	0x3c4054bc	0.011738952
113	0xbc03675f	-0.008020251
114	0x3d31aa0e	0.043375067
115	0x3b88a28d	0.004169768
116	0xbc841fbc	-0.016128413
117	0x3cbbd9bb	0.02293097
118	0x3ca240c5	0.019806275
119	0xbbde32fc	-0.00678098
120	0x3d300c94	0.042980745
121	0x3d30887b	0.043098908
122	0xbd174c93	-0.03693826
123	0xbc04a958	-0.008097015
124	0xbcd099ae	-0.025463905
125	0xbcf885f5	-0.030337313
126	0xbc92ac7d	-0.017904514
127	0xbc07d278	-0.008289926
128	0x3b009002	0.0019617085
129	0xbcfac15f	-0.030609785
130	0xbd4d4547	-0.050114896
131	0xbccc87cd	-0.024967099
132	0xbd433828	-0.047660977
133	0x3c9d2466	0.019182395
134	0xbcb9c615	-0.02267746
135	0xbd6090a7	-0.05482545
136	0x3d1b8378	0.037967175
137	0x3d076717	0.0330573
138	0xbd0d0905	-0.03443243
139	0xbd772be6	-0.0603446
140	0xbd54d66e	-0.05196231
141	0x3c4916e8	0.012273528
142	0xbd55e701	-0.052222256
143	0xbc89445b	-0.016756227
144	0x3d20cb76	0.039256535
145	0x3cc01ece	0.023452189
146	0xbb2f4177	-0.00267419
147	0x3c54905b	0.01297387
148	0xbd3fac99	-0.04679546
149	0x3d2c0c6e	0.04200404
150	0xbd65b10c	-0.05607705
151	0x3cac265b	0.021014383
152	0xbd40a511	-0.04703242
153	0x3a8dce9d	0.0010819022
154	0x3d673abb	0.056452494
155	0xbc660201	-0.014038564
156	0x3d45ccd5	0.048291046
157	0x3bc8fbdc	0.0061335396
158	0xbd269c42	-0.040676363
159	0xbd4aad53	-0.0494817
160	0xbb0a5086	-0.0021105125
161	0xbd4cf6bf	-0.050040003
162	0x3cc35fb9	0.023849355
163	0x3c893665	0.01674957
164	0x3caad881	0.02085519
165	0x3cfe4a6d	0.031041348
166	0x3cd61fe6	0.026138257
167	0xbbc2b6f6	-0.005942221
168	0x3c6c87f0	0.014436707
169	0x3d05b424	0.0326425
170	0xbcc99331	-0.02460632
171	0xbc80c63b	-0.015719524
172	0x3d03f2c3	0.032213937
173	0xbd271c18	-0.040798277
174	0xbd108c9b	-0.03529034
175	0x3d2ef0bb	0.042710047
176	0x3d0a932f	0.03383177
177	0xbb25f1e7	-0.0025321187
178	0x3d5a441b	0.053287607
179	0x3d5ec29f	0.054384824
180	0xbd0b7b0a	-0.034052886
181	0xbb66e8cf	-0.003523398
182	0x3d0aef2d	0.033919502
183	0xbc931579	-0.017954575
184	0x3c856cd7	0.01628725
185	0xbc46ccce	-0.01213379
186	0xbc967586	-0.018366586
187	0x3d0ffd9b	0.035153966
188	0x3bbf1492	0.0058313096
189	0xbc8ec8df	-0.017429767
190	0x3d66f12f	0.056382354
191	0x3b929588	0.004473392
192	0x3d56fa35	0.05248471
193	0xbce373b5	-0.027765134
194	0x3d4f07f6	0.0505447
195	0xbd563e0d	-0.05230527
196	0xbd348a48	-0.044077188
197	0xbd0ff60c	-0.035146758
198	0x3d436b6d	0.04770987
199	0xbc982d8a	-0.018576402
200	0xbbb0a990	-0.005391307
201	0x3c41a4a6	0.01181904
202	0xbaf065f8	-0.0018340936
203	0x3cfa4a29	0.03055294
204	0x3d17dc63	0.03707541
205	0xbd3582a3	-0.044314038
206	0xbd1c4f01	-0.03816128
207	0x3d1cfb3a	0.038325526
208	0xbcc86a4a	-0.024464745
209	0x3d2e81d8	0.042604297
210	0x3b346307	0.0027524845
211	0x3ce9e93a	0.028553594
212	0x3cd62f65	0.026145646
213	0x3d48cbc3	0.049022447
214	0x3cc27010	0.023735076
215	0x3d121c73	0.035671663
216	0x3ce17a30	0.027524084
217	0x3d302bcc	0.043010518
218	0x3c927394	0.017877378
219	0xbb9860fe	-0.0046502342
220	0xbd1abf12	-0.037779875
221	0xbd4cd10a	-0.050004043
222	0x3d577558	0.052602142
223	0x3c9cf009	0.019157426
224	0xbd6f22d5	-0.058382828
225	0xbd473170	-0.04863113
226	0xbd373bc9	-0.04473475
227	0x3d1febdd	0.039043296
228	0x3c9688ac	0.018375717
229	0xbc4dba0f	-0.012556567
230	0xbc70496b	-0.014665942
231	0x3926b5a9	0.00015898667
232	0xbd3c209b	-0.045929532
233	0xbd04e60a	-0.032445945
234	0x3d27ac36	0.040935718
235	0xbd4d3948	-0.050103456
236	0x3c664e99	0.014056825
237	0x3c467486	0.012112742
238	0xba5455e4	-0.0008099957
239	0x3c15b2ea	0.009136895
240	0x3d28a459	0.04117236
241	0xbb9fa29d	-0.00487168
242	0xbd50dccc	-0.05099182
243	0xbd20d707	-0.039267566
244	0xbd61bc4e	-0.055111222
245	0x3c98e3ff	0.018663405
246	0x3cffd665	0.031230161
247	0x3ca7adbd	0.020468587
248	0x3ce95db1	0.028487058
249	0xbd40a042	-0.047027834
250	0xbd051037	-0.032486167
251	0xbca8d28c	-0.02060821
252	0xbd564104	-0.052308097
253	0x3cbf5dd6	0.023360174
254	0xbd3aa2f0	-0.045565546
255	0x3d6085dd	0.054815162

head.0.bias f4 [128]
0	0xbce77ad2	-0.028256807
1	0xbd39f55b	-0.045400005
2	0xbd4c0bf5	-0.04981609
3	0x3dd2f313	0.10300269
4	0xbc96fba5	-0.01843054
5	0x3d3f9f16	0.046782576
6	0x3d8e4313	0.06946387
7	0xbd6f4471	-0.05841488
8	0x3bc21d15	0.005923877
9	0xbc87b663	-0.016566461
10	0xbcf9ab1b	-0.030477097
11	0x3d819295	0.063267864
12	0x3c26adee	0.010173304
13	0x3da0df4a	0.07855089
14	0x3cc548b5	0.024082521
15	0xbc901683	-0.01758886
16	0x3d3148eb	0.04328243
17	0xbc38d66f	-0.011281594
18	0xbcdfcaa6	-0.02731831
19	0x3d303ae4	0.043024912
20	0x3db61612	0.08890928
21	0x3d600cd7	0.054699745
22	0xbce67ab7	-0.028134687
23	0xbc1bdea2	-0.009513529
24	0x3d3f84ed	0.046757627
25	0x3b8908f3	0.004181975
26	0xbc9182e8	-0.017762616
27	0xbd278fd1	-0.04090864
28	0xbc03f32f	-0.008053585
29	0x3d090a5d	0.03345715
30	0x3d72e263	0.05929793
31	0x3d1c5eaa	0.038176216
32	0x3d34d50d	0.044148494
33	0x3ce92b6f	0.028463094
34	0xbd03b0ae	-0.032150917
35	0x3c6b4de8	0.014361836
36	0xbd792c6d	-0.060833383
37	0xbcde091e	-0.027103957
38	0x3d94a9ad	0.072589256
39	0xbcfe2d32	-0.03102741
40	0xbd180d77	-0.037122216
41	0x3d840fd9	0.06448335
42	0xbc7acb09	-0.015307196
43	0x3c168cf7	0.009188882
44	0x3d26fc16	0.04076775
45	0x3d37937a	0.04481838
46	0x3cf25dbf	0.029585717
47	0x3d270340	0.040774584
48	0xbd1c2eff	-0.038130756
49	0xbd4019cd	-0.046899606
50	0x3c380ba4	0.011233244
51	0xbbf26f52	-0.0073985243
52	0x3d7d637c	0.061862454
53	0x3b3926ba	0.0028251843
54	0xbc15a70f	-0.009134068
55	0xbd63ce10	-0.05561644
56	0x3d21b7fa	0.039482094
57	0xbcc3b809	-0.023891466
58	0x3c0b0e2b	0.008487265
59	0x3d325d60	0.04354608
60	0xbc11401e	-0.008865384
61	0xbc70c3fe	-0.014695166
62	0x3c8a8e0a	0.016913433
63	0x3c300d11	0.010745303
64	0x3bfd3d2f	0.007728241
65	0x3d1ba223	0.037996422
66	0xbd61b940	-0.05510831
67	0xbd36fce1	-0.044674758
68	0x3cfccb48	0.03085865
69	0x3d588184	0.05285789
70	0x3da3fa4d	0.080067255
71	0x3c45d400	0.0120744705
72	0x3d724a64	0.059152976
73	0x3d82b543	0.06382229
74	0x3d6dec2e	0.058086567
75	0x3d0689aa	0.03284613
76	0xbcc1ade1	-0.023642482
77	0x3d4e0ff6	0.05030819
78	0xbd0679d4	-0.032831028
79	0xbd2060e9	-0.03915492
80	0xba7eadd9	-0.00097152364
81	0xbd58f3e3	-0.052966963
82	0xbd437686	-0.047720455
83	0x3d186d9e	0.037213914
84	0xbbb70a7b	-0.005585966
85	0xbc874b1e	-0.01651531
86	0x3cb32121	0.021866383
87	0x3cba84b3	0.022768354
88	0x3da81e4d	0.082089044
89	0xbd6e5b61	-0.058192614
90	0x3d91d087	0.071198516
91	0x3cbec250	0.023286015
92	0x3bcb61dd	0.0062067346
93	0x3d70b31c	0.058764562
94	0x3d1db619	0.03850374
95	0x3e121ff1	0.14269997
96	0x3c8f7dae	0.017515983
97	0x3ccdaa30	0.025105566
98	0xbc74e664	-0.0149475075
99	0x3d7ee265	0.062227625
100	0xbb9d8efc	-0.004808305
101	0xbca4a580	-0.020098448
102	0x3b2a8835	0.0026021127
103	0x3b437377	0.002982346
104	0x3d6ebea1	0.058287267
105	0xbd2085a8	-0.039189965
106	0x3ba32b4c	0.0049795266
107	0x3cecbc5c	0.02889841
108	0x3c09f6f9	0.008420699
109	0xbd0caf0c	-0.034346625
110	0x3cd7623c	0.026291959
111	0xbc3af453	-0.0114107905
112	0x3caebf59	0.021331476
113	0xbb74c539	-0.0037349
114	0xbb425fb6	-0.00296591
115	0x389c6750	7.457903e-05
116	0x3b37a8f1	0.002802428
117	0x3d2466fa	0.04013727
118	0xbd12e080	-0.03585863
119	0xbd169581	-0.03676367
120	0xbd02c137	-0.031922545
121	0xbd4db798	-0.050223917
122	0x3d336d36	0.043805324
123	0x3d98cc18	0.07460803
124	0xbd0e229e	-0.034700982
125	0xbd2d530a	-0.04231552
126	0x3c1e5459	0.009663665
127	0xbcaf6b7f	-0.021413563

head.2.weight f4 [36, 128]
0	0x3d133e65	0.035948176
1	0xbcbd4e67	-0.023108674
2	0x3c91c074	0.017791964
3	0xbd73bd2b	-0.059506577
4	0xb786bad1	-1.6061038e-05
5	0xbcfc8af5	-0.030827979
6	0xbcb048d1	-0.021519097
7	0xbca54ae1	-0.020177307
8	0xbc0e28d1	-0.008676724
9	0x3bb726c9	0.0055893403
10	0xbb5b42ad	-0.003345649
11	0x3d836b21	0.064169176
12	0xbce664ef	-0.0281243
13	0xbd8f9081	-0.07009984
14	0x3af8b46c	0.0018974668
15	0xbd0dd857	-0.034630146
16	0x3c07181f	0.008245497
17	0xbc4338b1	-0.011915372
18	0x3933d72e	0.00017150931
19	0xb347b23e	-4.649541e-08
20	0x3d8530d7	0.06503456
21	0x3d2ce979	0.042214844
22	0x3c0efebb	0.008727725
23	0x3c039df3	0.0080332635
24	0x3bb69706	0.0055722026
25	0x3ca92875	0.020649174
26	0x3cba7566	0.022761058
27	0xbd02e659	-0.031957958
28	0x3d988455	0.07447115
29	0x3c45b97a	0.012068147
30	0xbb5e4717	-0.0033916885
31	0xbba0de27	-0.004909295
32	0x3ce7bfed	0.02828976
33	0x3d04c020	0.032409787
34	0xbb62d327	-0.003461072
35	0x3cda8964	0.026676841
36	0xbca4fa8b	-0.020139
37	0xbc73471c	-0.014848497
38	0xbd01938e	-0.03163486
39	0xbceb6cda	-0.028738428
40	0xbcb44a20	-0.022008002
41	0xbcebe3bc	-0.028795116
42	0x3d04c414	0.032413557
43	0x3d19ba40	0.037531137
44	0x00000000	0.0
45	0x3caa57c9	0.020793812
46	0x3cc41723	0.023936814
47	0x3ad36315	0.0016127551
48	0xbd02b7de	-0.03191363
49	0xbb8f5907	-0.0043746266
50	0xbc3d0cf4	-0.011538733
51	0x3b7a057b	0.003815024
52	0x3c677a86	0.014128333
53	0x3c539e3d	0.012916145
54	0x392f43f2	0.00016714612
55	0x00000000	0.0
56	0xbd180a7c	-0.037119374
57	0xbd156445	-0.036472578
58	0xbd61227c	-0.054964527
59	0xbd06c31a	-0.032900907
60	0x3bf0688d	0.007336682
61	0x3cae5603	0.021281248
62	0x34df68b6	4.1613174e-07
63	0xbc193736	-0.009351542
64	0x3d0ae438	0.033909053
65	0xbaaff906	-0.0013425655
66	0x3ceef5e0	0.029169977
67	0x3c30b7ea	0.010786036
68	0xbbf48c80	-0.007463038
69	0x3341c5fc	4.511638e-08
70	0xbd50273c	-0.050818667
71	0xbc093684	-0.008374814
72	0x3c490ade	0.012270657
73	0x3d4ba1a0	0.049714684
74	0xbe0317af	-0.12802003
75	0x39ecdb13	0.0004517665
76	0x3ba285d9	0.0049598035
77	0x3c7b90c3	0.015354338
78	0x3bdbead9	0.0067113456
79	0x3cf65112	0.030067954
80	0x3bcdc66b	0.006279757
81	0xbc4a07cb	-0.01233096
82	0xbc75e3a9	-0.015007892
83	0xbbffc7bb	-0.007805792
84	0x3be010e4	0.006837951
85	0xbd92abaf	-0.07161652
86	0x3cf44b71	0.02982113
87	0x3d5eee21	0.054426316
88	0x3cc91e04	0.024550445
89	0xbcc54d91	-0.024084838
90	0x3cee39ca	0.02908029
91	0x3d7ca735	0.0616829
92	0x3c94cc0b	0.018163702
93	0xbd49f853	-0.049309086
94	0x3d8b22fb	0.06793781
95	0xbd4c99e7	-0.04995146
96	0x3ac36b19	0.0014909237
97	0xbca1915d	-0.019722635
98	0x3bc437d4	0.0059881005
99	0xbceb24d7	-0.02870409
100	0x3c029e78	0.007972352
101	0x3cead36d	0.028665269
102	0x3d0b0da6	0.033948563
103	0x3da325e3	0.07966211
104	0x3b16f427	0.002303371
105	0xbc4a9206	-0.012363916
106	0x3d2a5ad9	0.041590545
107	0x00000000	0.0
108	0x3b6cd40a	0.0036137127
109	0x3bc40a5d	0.0059826807
110	0xbbd2711d	-0.0064221756
111	0xbd8f178c	-0.06986913
112	0x3c26ab43	0.010172668
113	0x3d32bc63	0.04363669
114	0x3b4f797b	0.0031658101
115	0x3d06f51a	0.03294859
116	0x3c9bcf2e	0.01901969
117	0xbca9c82d	-0.020725334
118	0x3af4c846	0.0018675409
119	0xbbbc64d1	-0.005749323
120	0x3c53cfe6	0.012927985
121	0x39f1b89b	0.00046104644
122	0x3d0b36c4	0.033987775
123	0x3bb703d8	0.005585175
124	0x3d007105	0.031357784
125	0x3c1ef0b4	0.009700943
126	0xbc1f2cc3	-0.009715262
127	0x3c34465c	0.011003103
128	0x3c6c2d2a	0.014415065
129	0xbb9158e0	-0.0044356436
130	0x3c5c190b	0.013433705
131	0xbc5b85a9	-0.013398566
132	0xb6d2e028	-6.284583e-06
133	0x3cb4d6c5	0.022075066
134	0x3cb5f687	0.02221228
135	0xbc3a779f	-0.011381059
136	0xbbe2de25	-0.0069234543
137	0xba972aad	-0.0011533104
138	0x3b41d902	0.002957881
139	0x3d2589a5	0.04041447
140	0xbb339c1c	-0.002740628
141	0xbd179ccd	-0.03701477
142	0x3c0d9320	0.008641034
143	0xbc205f9d	-0.009788421
144	0x3c5289d4	0.012850244
145	0xbc94b359	-0.018151926
146	0x3658c469	3.2300834e-06
147	0x00000000	0.0
148	0x3bdf102e	0.0068073487
149	0x3cbac6a7	0.022799803
150	0x3ce2beeb	0.027678927
151	0xbbe995cd	-0.0071284533
152	0x3b9d714e	0.0048047667
153	0x3cea8ba5	0.02863104
154	0x3ac4614a	0.0014982608
155	0xbbfdcd0a	-0.00774539
156	0x3bb71962	0.0055877427
157	0x3d497913	0.04918773
158	0xbc7448e1	-0.014909954
159	0xbcb02560	-0.021502197
160	0xbc660462	-0.014039131
161	0x3d080186	0.033204578
162	0xbbdc7a6d	-0.0067284615
163	0x3d134252	0.03595192
164	0xbc644623	-0.0139327375
165	0x3bb1b8fe	0.005423664
166	0xbc98ae28	-0.018637732
167	0xbbcbcc24	-0.006219404
168	0x3c7c2aac	0.015391033
169	0xbbd0103b	-0.006349591
170	0x3cd2a958	0.025715515
171	0x3c2013c4	0.0097703375
172	0x00000000	0.0
173	0xbcdddb50	-0.027082115
174	0x3d0d8697	0.034552183
175	0xbad6d886	-0.0016391433
176	0x3a9e905c	0.0012097466
177	0x3ba2ccf5	0.0049682804
178	0x37ef18e2	2.8502607e-05
179	0xbc272f82	-0.010204198
180	0xbc5a45a5	-0.013322269
181	0x3d0bd203	0.03413583
182	0xbb358cef	-0.0027702411
183	0x00000000	0.0
184	0xbc3ee0f0	-0.011650309
185	0x3b2fcf19	0.002682632
186	0xbcd3cd26	-0.025854658
187	0xbbbfe427	-0.0058560553
188	0x3be29148	0.0069142915
189	0xbc21213e	-0.009834586
190	0x00000000	0.0
191	0x3991e2e2	0.00027825596
192	0xbd1af41d	-0.03783046
193	0xbb047e3a	-0.0020216838
194	0x3b1b52eb	0.0023700546
195	0x38fd9ef8	0.0001209359
196	0xbc5c5dde	-0.013450114
197	0x00000000	0.0
198	0xbcfcde6f	-0.030867783
199	0xbc04892b	-0.008089344
200	0x3c0e24aa	0.008675734
201	0x3d1b88b1	0.037972156
202	0xbc9a5bc9	-0.018842595
203	0x3a0d31df	0.00053861545
204	0xbbfeaae5	-0.007771837
205	0x3ac360a3	0.0014906119
206	0x3c14cb18	0.009081624
207	0x3c7f1208	0.015568264
208	0xbb88a0bc	-0.0041695517
209	0xbc97cf1e	-0.018531378
210	0x3afcb3df	0.001927968
211	0xba80e2bd	-0.0009833198
212	0x3ba86209	0.00513864
213	0xbc7d3b54	-0.015456039
214	0xbd161967	-0.03664532
215	0x3c67ab26	0.014139926
216	0xbc44198b	-0.011968981
217	0xbc503ce1	-0.012709827
218	0xbc29f61c	-0.010373618
219	0x3b9a17de	0.004702552
220	0x3b8ba389	0.0042614383
221	0xba86925b	-0.0010267006
222	0xbacddd66	-0.0015706241
223	0xbbb7942a	-0.0056023793
224	0xbb57369a	-0.0032838942
225	0x3d215fc7	0.03939798
226	0x3c251be3	0.0100774495
227	0x3b39c9d5	0.002834906
228	0x3c8abb39	0.016934978
229	0xbb37bd25	-0.0028036323
230	0x3cbc14eb	0.022959193
231	0xbc8a166b	-0.016856393
232	0xbc9efb15	-0.019406835
233	0x3c921853	0.017833864
234	0x3b99f109	0.004697923
235	0x00000000	0.0
236	0x398f96cc	0.00027387438
237	0x3b79e8cd	0.0038133145
238	0x3c10aa7b	0.008829708
239	0x3b64bb32	0.0034901616
240	0x3b99ead7	0.0046971845
241	0xbc0428c7	-0.008066363
242	0x3b987159	0.004652184
243	0xbce37810	-0.027767211
244	0xbacf9fee	-0.001584051
245	0x3a675b56	0.0008825561
246	0x3c01705b	0.007900323
247	0x3b75a1dc	0.003748051
248	0x3bd976e9	0.0066364896
249	0x3976520e	0.00023490956
250	0x3cb91971	0.02259514
251	0xbc961764	-0.0183217
252	0x3c8bfcea	0.017088372
253	0x3c28ee2c	0.010310691
254	0x3d1169a4	0.035501137
255	0xba439d8d	-0.00074621366

head.2.bias f4 [36]
0	0x3dbac3d3	0.09119382
1	0x3cee1d4e	0.029066708
2	0x3d2aaba7	0.041667607
3	0x3d094df3	0.033521604
4	0x3d5ef7b2	0.05443544
5	0x3dccc277	0.09998029
6	0x3d4ace42	0.04951311
7	0x3d621e28	0.05520454
8	0x3da50ed2	0.080594674
9	0x3ca35691	0.019938739
10	0x3cc84254	0.02444569
11	0x3d70d2f0	0.058794916
12	0x3d83ccf5	0.06435577
13	0x3d8e862a	0.069591835
14	0x3d905063	0.070465825
15	0x3db02ef1	0.08602703
16	0x3e01f6a7	0.12691747
17	0x3d2f8b21	0.042857293
18	0x3c31a9c8	0.010843702
19	0x3cce1eb9	0.025161134
20	0x3d7186b2	0.058966346
21	0x3d541d6d	0.051785875
22	0x3d25c8b2	0.0404746
23	0x3d440c47	0.04786327
24	0x3d999de4	0.07500818
25	0x3d2151c5	0.039384622
26	0x3d2ce489	0.042210136
27	0x3c9403d0	0.018068224
28	0x3d4dea3c	0.05027221
29	0x3d537297	0.051622953
30	0x3d85d06b	0.06533893
31	0x3d30cbf9	0.043163273
32	0x3ddb630b	0.1071225
33	0x3d688c9d	0.056774724
34	0x3ccb7d0b	0.024839899
35	0x3cac0e23	0.021002835
